stream-dev-conda-py/ollam/LoRA_pyspark/models/fully_offline_lora/checkpoint-50/adapter_model.safetensors (safetensors, 6400 bytes, 4 tensors)

base_model.model.embedding.lora_embedding_A f4 [4, 58]
000000 02 b8 da bc 08 ab ef 3a 00 00 00 00 00 00 00 00
       -0.02669907 0.0018285224 0.0 0.0
000010 00 00 00 00 c5 2d bb 3c 33 76 d2 3c 0b df cd 3c
       0.0 0.022848973 0.025691127 0.02513077
000020 8c e3 b4 3c 00 00 00 00 00 00 00 00 db 11 b0 bc
       0.022081159 0.0 0.0 -0.02149289
000030 00 00 00 00 78 6a cb bc 09 0c c2 3c 20 d9 a4 3c
       0.0 -0.024831042 0.02368738 0.020123065
000040 00 00 00 00 7f 83 a0 3c 00 00 00 00 00 00 00 00
       0.0 0.019593952 0.0 0.0
000050 00 00 00 00 00 00 00 00 00 00 00 00 00 00 00 00
       0.0 0.0 0.0 0.0
000060 00 00 00 00 00 00 00 00 00 00 00 00 00 00 00 00
       0.0 0.0 0.0 0.0
000070 00 00 00 00 00 00 00 00 00 00 00 00 00 00 00 00
       0.0 0.0 0.0 0.0
000080 00 00 00 00 00 00 00 00 00 00 00 00 00 00 00 00
       0.0 0.0 0.0 0.0
000090 00 00 00 00 00 00 00 00 00 00 00 00 00 00 00 00
       0.0 0.0 0.0 0.0
0000a0 00 00 00 00 00 00 00 00 00 00 00 00 00 00 00 00
       0.0 0.0 0.0 0.0
0000b0 00 00 00 00 00 00 00 00 00 00 00 00 00 00 00 00
       0.0 0.0 0.0 0.0
0000c0 00 00 00 00 00 00 00 00 00 00 00 00 bd 27 8a 3c
       0.0 0.0 0.0 0.016864652
0000d0 dc b4 7e 3b 00 00 00 00 00 00 00 00 00 00 00 00
       0.0038865125 0.0 0.0 0.0
0000e0 00 00 00 00 7a 68 0c 3c b9 8b 5b bb 3c 46 e6 bc
       0.0 0.008569831 -0.003350003 -0.028109662
0000f0 00 00 00 00 00 00 00 00 00 00 00 00 3c ed d4 3c
       0.0 0.0 0.0 0.025992028
000100 64 b4 f7 bc a6 8b c7 3c 91 a6 db bc 00 00 00 00
       -0.030237384 0.024358582 -0.026812823 0.0
000110 00 00 00 00 c3 b0 c6 bc 00 00 00 00 23 ec c2 3c
       0.0 -0.024254208 0.0 0.02379424
000120 b0 88 c4 bc ff f0 b5 3c 00 00 00 00 f8 b4 b3 bc
       -0.023990959 0.022209642 0.0 -0.021936879
000130 00 00 00 00 00 00 00 00 00 00 00 00 00 00 00 00
       0.0 0.0 0.0 0.0
000140 00 00 00 00 00 00 00 00 00 00 00 00 00 00 00 00
       0.0 0.0 0.0 0.0
000150 00 00 00 00 00 00 00 00 00 00 00 00 00 00 00 00
       0.0 0.0 0.0 0.0
000160 00 00 00 00 00 00 00 00 00 00 00 00 00 00 00 00
       0.0 0.0 0.0 0.0
000170 00 00 00 00 00 00 00 00 00 00 00 00 00 00 00 00
       0.0 0.0 0.0 0.0
000180 00 00 00 00 00 00 00 00 00 00 00 00 00 00 00 00
       0.0 0.0 0.0 0.0
000190 00 00 00 00 00 00 00 00 00 00 00 00 00 00 00 00
       0.0 0.0 0.0 0.0
0001a0 00 00 00 00 00 00 00 00 00 00 00 00 00 00 00 00
       0.0 0.0 0.0 0.0
0001b0 00 00 00 00 ae d3 a6 bc 21 95 2b 3c 00 00 00 00
       0.0 -0.020364609 0.010472567 0.0
0001c0 00 00 00 00 00 00 00 00 00 00 00 00 d7 4a a9 bc
       0.0 0.0 0.0 -0.02066557
0001d0 38 b5 ee 3c 6a 7e 95 bc 00 00 00 00 00 00 00 00
       0.029139146 -0.018248755 0.0 0.0
0001e0 00 00 00 00 fa db d7 3c 6e c1 d1 3c b7 8e db 3c
       0.0 0.02635001 0.02560493 0.02680145
0001f0 61 21 d7 3c 00 00 00 00 00 00 00 00 26 4f c9 3c
       0.026261033 0.0 0.0 0.024573874
000200 00 00 00 00 9b bb d5 3c 80 e2 70 3c 11 d4 d5 3c
       0.0 0.026090434 0.014702439 0.026102098
000210 00 00 00 00 c8 aa cb bb 00 00 00 00 00 00 00 00
       0.0 -0.006215427 0.0 0.0
000220 00 00 00 00 00 00 00 00 00 00 00 00 00 00 00 00
       0.0 0.0 0.0 0.0
000230 00 00 00 00 00 00 00 00 00 00 00 00 00 00 00 00
       0.0 0.0 0.0 0.0
000240 00 00 00 00 00 00 00 00 00 00 00 00 00 00 00 00
       0.0 0.0 0.0 0.0
000250 00 00 00 00 00 00 00 00 00 00 00 00 00 00 00 00
       0.0 0.0 0.0 0.0
000260 00 00 00 00 00 00 00 00 00 00 00 00 00 00 00 00
       0.0 0.0 0.0 0.0
000270 00 00 00 00 00 00 00 00 00 00 00 00 00 00 00 00
       0.0 0.0 0.0 0.0
000280 00 00 00 00 00 00 00 00 00 00 00 00 00 00 00 00
       0.0 0.0 0.0 0.0
000290 00 00 00 00 00 00 00 00 00 00 00 00 88 46 a1 3c
       0.0 0.0 0.0 0.019686952
0002a0 d6 a2 a1 3c 00 00 00 00 00 00 00 00 00 00 00 00
       0.019730967 0.0 0.0 0.0
0002b0 00 00 00 00 69 9f ab 3c ec 57 de bc c1 89 bb 3c
       0.0 0.020950036 -0.027141534 0.022892835
0002c0 00 00 00 00 00 00 00 00 00 00 00 00 3d 87 d4 3c
       0.0 0.0 0.0 0.025943393
0002d0 e8 4e cc bc a0 87 d0 bc 31 9a df 3c 00 00 00 00
       -0.02493997 -0.025455296 0.027295204 0.0
0002e0 00 00 00 00 13 f3 95 bc 00 00 00 00 ec b9 c3 bc
       0.0 -0.018304383 0.0 -0.023892365
0002f0 2a f0 9a bc 9d 42 db 3c 00 00 00 00 ee 6a 2f bc
       -0.018913347 0.026765162 0.0 -0.010706646
000300 00 00 00 00 00 00 00 00 00 00 00 00 00 00 00 00
       0.0 0.0 0.0 0.0
000310 00 00 00 00 00 00 00 00 00 00 00 00 00 00 00 00
       0.0 0.0 0.0 0.0
000320 00 00 00 00 00 00 00 00 00 00 00 00 00 00 00 00
       0.0 0.0 0.0 0.0
000330 00 00 00 00 00 00 00 00 00 00 00 00 00 00 00 00
       0.0 0.0 0.0 0.0
000340 00 00 00 00 00 00 00 00 00 00 00 00 00 00 00 00
       0.0 0.0 0.0 0.0
000350 00 00 00 00 00 00 00 00 00 00 00 00 00 00 00 00
       0.0 0.0 0.0 0.0
000360 00 00 00 00 00 00 00 00 00 00 00 00 00 00 00 00
       0.0 0.0 0.0 0.0
000370 00 00 00 00 00 00 00 00 00 00 00 00 00 00 00 00
       0.0 0.0 0.0 0.0
000380 00 00 00 00 ed 32 a3 3c 80 07 9d 3c 00 00 00 00
       0.0 0.019921744 0.019168615 0.0
000390 00 00 00 00 00 00 00 00 00 00 00 00 d3 21 a2 bc
       0.0 0.0 0.0 -0.01979152

base_model.model.embedding.lora_embedding_B f4 [128, 4]
000000 2c 91 94 3d 3a 5f 06 3f 55 09 a5 3e a1 96 1f 3f
       0.07254252 0.52489054 0.32233682 0.62339216
000010 a0 89 a3 bd 66 24 c3 3e 09 ee d8 bf 7c a6 d4 bf
       -0.07985234 0.38113707 -1.6947643 -1.6613307
000020 ea 51 32 bf d3 4d 09 bf ce 5c 76 bf 75 34 b7 3e
       -0.6965624 -0.53634375 -0.9623536 0.3578221
000030 a2 87 e0 3f 0a 9b 53 be c5 51 e1 3e 58 49 d8 3f
       1.7541392 -0.20664611 0.44007698 1.6897383
000040 f8 77 57 3e b1 8d 62 3d 44 76 97 bf 89 a5 2b 3e
       0.21041858 0.05531091 -1.1832967 0.16762365
000050 87 79 8f 3e d3 c2 8c 3f d6 4a d0 3e b5 bb 97 bc
       0.28022406 1.0996956 0.40682095 -0.018522123
000060 3a b3 33 3f 22 4e e5 bf 90 b6 75 3f fe f5 5d 3f
       0.70195353 -1.7914469 0.95981693 0.8670348
000070 eb f1 4f 3e b4 13 4b 3e 7c fa 56 3e 57 f2 52 bf
       0.20307128 0.19831735 0.2099399 -0.8240103
000080 05 45 b1 bf 2f a9 e2 3d 01 fd 63 3e c7 1f 6a bd
       -1.3849188 0.110674255 0.22264482 -0.05715921
000090 70 3c b1 be 5a 8c b9 3e 6d e2 4c c0 76 4d af 3f
       -0.34616423 0.36239892 -3.20132 1.3695514
0000a0 9c 2b 62 bf 2c 08 e3 be a8 05 3a be 3b 47 33 3f
       -0.8834779 -0.44342172 -0.1816622 0.70030564
0000b0 c2 4d de be 33 46 88 bf cd 6c dc 3f d1 4f 63 3e
       -0.434187 -1.0646423 1.7220703 0.22198416
0000c0 13 75 12 40 67 38 3f 3f 0e 2a 86 bf 30 ba cd bf
       2.2883956 0.7469544 -1.0481584 -1.6072445
0000d0 2c 15 c0 3f a5 d2 f4 be 5b 7e ff bb 39 22 01 3f
       1.5006461 -0.4781696 -0.007797045 0.50442845
0000e0 d5 d1 7a bf 37 6a 57 bf fa 4f d8 bf c4 fb 65 3e
       -0.9797643 -0.84146446 -1.6899407 0.22459322
0000f0 30 bb 26 c0 b9 a5 32 bf 2b 99 e1 be 45 5e 74 3f
       -2.605175 -0.6978412 -0.4406217 0.95456344
000100 3d 87 45 3f ec 4d cb 3e 58 ac 60 3e 9d b4 7d bf
       0.7715948 0.39707887 0.21940744 -0.9910372
000110 7a 13 42 bf ae 66 46 bf d3 10 63 bf 27 89 8c bf
       -0.7581097 -0.77500427 -0.88697547 -1.0979356
000120 f4 0b c9 3f 2e 55 e1 bf 21 ac 4a bf c2 24 a3 bf
       1.5706773 -1.760412 -0.791689 -1.2745593
000130 f9 5c ca bd 71 0e b6 3f f0 c0 49 bd ca d7 7e 3f
       -0.098810144 1.4223157 -0.049256265 0.9954802
000140 3f fd d5 bf 2e 2d 56 3f 8c cc c7 3f 12 8e 9b 3f
       -1.671791 0.8366269 1.5609298 1.2152731
000150 cf 8f 20 3e c5 c2 ba 3e 15 5b b3 bb 45 ed 4c 3f
       0.15679859 0.36476722 -0.0054735043 0.80049545
000160 1b 5e 84 3f d0 43 e4 3f 3e 5e d3 3c dd ef a5 3e
       1.0341219 1.7833195 0.025801774 0.32409564
000170 1d 39 3b 3d 9c 23 8f bf af e0 dd 3f a7 b8 8d bf
       0.045708764 -1.1182742 1.7334193 -1.1071976
000180 31 9e 23 3f a1 07 0a 3d 38 fd 8c bf 43 92 e2 3f
       0.63913256 0.03369868 -1.1014776 1.7700886
000190 1c 3e 48 3e 6e 07 da 3f 7e 76 92 3f 32 b0 43 3e
       0.19554943 1.7033517 1.1442411 0.19110182
0001a0 5d 8c 55 3f 0a 1e 62 bf 41 58 0d 3f 72 f2 b8 bf
       0.834173 -0.88327086 0.5521279 -1.4448988
0001b0 85 dc 19 bf 30 2f e4 bf 55 3f e9 3e a6 ff 43 bf
       -0.6010211 -1.78269 0.4555613 -0.76561964
0001c0 3d 26 ec be 1c 7b 07 40 0a 0a 8f 3f c6 0c 23 bf
       -0.46122923 2.116889 1.1174939 -0.63691366
0001d0 52 bd d4 bd 28 0f 9e bf 96 b6 e1 be df 51 44 3f
       -0.103876725 -1.2348375 -0.44084615 0.76687425
0001e0 64 8f 40 3f 87 83 5d 3e 43 5d 3c bf 5d 73 84 3f
       0.75218797 0.21632205 -0.73579806 1.0347706
0001f0 2c 3f 72 3d 11 eb f7 be 62 82 26 be e0 4b fc bd
       0.059142277 -0.4842153 -0.16260675 -0.123191595
000200 ed 32 e5 bf 79 ee de be 6a d2 50 3f 79 92 3f 3f
       -1.7906166 -0.43541315 0.81571066 0.74832875
000210 90 c2 39 3e b8 ff 32 bf 21 30 aa 3f f7 f2 ca 3e
       0.18140626 -0.69921446 1.3295938 0.39638492
000220 12 e9 01 bf 2f a0 77 bd 98 b0 73 3d 37 89 cb be
       -0.5074626 -0.060455497 0.059494585 -0.39753124
000230 d0 84 e1 3d 62 ec 43 bf db 14 c3 3f 89 66 8d 3f
       0.1101166 -0.76532567 1.524074 1.1046916
000240 98 62 08 3f 7f 8c 12 3f 4f 21 bd bf 09 4c ed be
       0.5327544 0.5724563 -1.477579 -0.46347073
000250 c0 7a 32 bf 66 94 73 bf e4 55 ae bb 7d 3d 02 bf
       -0.6971855 -0.95148313 -0.0053202976 -0.50875074
000260 f4 98 b1 3f 8b ae 4c bf 49 40 5d 3e 38 81 13 bf
       1.3874803 -0.7995383 0.21606554 -0.5761905
000270 f3 57 f2 3f 4c 8e a8 bf e8 da 0b 3f 77 9e 6c be
       1.893309 -1.3168426 0.546309 -0.23107325
000280 62 ca 39 bf 48 d3 33 be e9 62 bc 3f 3f cb 29 40
       -0.72574437 -0.17561066 1.4717685 2.6530302
000290 95 cd 01 bf ea ac 24 bf 8b fe 8f be a6 74 0c c0
       -0.5070432 -0.64326346 -0.28123888 -2.1946197
0002a0 4a 0e 19 3e a7 bf d8 be a3 a7 87 3f 11 a1 43 3e
       0.14946857 -0.4233372 1.0598034 0.1910441
0002b0 f2 91 9c 3f 2d 63 ae bc 5a c6 0e c0 76 0f 54 3f
       1.2232039 -0.021287525 -2.2308564 0.8283609
0002c0 31 13 df bf 9a a4 a9 bd 9f 8d 98 3f 6f 4f de 3c
       -1.7427732 -0.082833484 1.1918219 0.027137486
0002d0 02 c5 96 3f 6b 67 a2 3f 7b 25 39 bf 2f 97 a2 3f
       1.1778872 1.2687811 -0.72322816 1.2702388
0002e0 a0 7c 77 bd 4e fd 4c bf ee b1 00 3f 1b 44 14 3e
       -0.060421586 -0.8007401 0.502715 0.14479105
0002f0 57 c1 5e bf 38 a1 62 3f 4c 2c a5 be 23 a4 e5 3f
       -0.87013763 0.8852725 -0.32260358 1.7940716
000300 33 25 65 3e 8e e6 1d 3e f4 45 ec 3f 8d 14 db 3e
       0.22377472 0.15419981 1.8458848 0.42789117
000310 9f 9b 9c 3e 68 c0 74 bf 88 80 78 3e f2 3f 8e bf
       0.3058748 -0.9560609 0.24267781 -1.1113265
000320 ce a1 11 be 9e 69 14 3d 28 e6 41 3d f9 34 8d bf
       -0.1422188 0.036233537 0.047338635 -1.1031791
000330 6d b6 87 3f a6 04 7d bf 03 1a ee be da 1f 39 be
       1.0602547 -0.9883522 -0.4650422 -0.18078557
000340 3a 69 f7 bd 51 f4 51 3f e0 4c 5c 3f 37 de dc 3e
       -0.12080617 0.8201342 0.860548 0.43138286
000350 e4 cb 5f bf d4 18 1f bf 1c 00 2f 3f 73 25 81 3e
       -0.8742049 -0.6214726 0.6835954 0.25223884
000360 0c ba 27 be 2d 4f 60 3f b9 ff 69 3e 39 30 56 3f
       -0.16379565 0.8762081 0.22851457 0.8366733
000370 8b a1 27 3f ea aa e1 3d 3c 53 ce bd dd 31 bd bf
       0.6548087 0.110189274 -0.100744694 -1.4780842
000380 b3 2b 47 3f f7 6b 98 3f 44 35 47 3f 79 fb a6 bf
       0.77801055 1.1907948 0.7781565 -1.3045493
000390 30 1b a0 3f 1f a1 37 bf 72 cb b2 3f 4d 08 ec bf
       1.2508297 -0.71730226 1.3968337 -1.8440033
0003a0 34 69 e2 3e 33 cc 64 3f f3 ac a5 3e eb 38 75 bf
       0.4422089 0.89374083 0.32358512 -0.95789975
0003b0 52 25 8b 3d 48 2d 8a bf 71 4e 00 3f 70 36 7b bf
       0.06794228 -1.0795069 0.5011969 -0.9812994
0003c0 3f 04 5d 3f c8 f2 12 3f 54 ba 19 c0 8d 3f 29 3f
       0.86334604 0.57401705 -2.4019976 0.66112596
0003d0 af 07 d1 bf de cf 82 bf c9 64 31 bd f4 c1 89 bd
       -1.633047 -1.0219686 -0.043309007 -0.06726447
0003e0 84 f3 81 bf 20 6d 92 bf f1 90 0f 3f 9a 30 21 bf
       -1.015244 -1.1439552 0.5608054 -0.62964785
0003f0 ff 14 a4 3f 7c 0d a9 3e 63 4c 43 3f 45 63 be 3e
       1.2818907 0.330181 0.7628843 0.37185112

base_model.model.output.lora_A.weight f4 [4, 128]
000000 53 46 45 3d d3 ff 93 3c 43 86 f6 bd 5a 83 9b 3d
       0.04816277 0.018066322 -0.12037327 0.07593413
000010 63 08 f0 3d 24 00 13 bd 2f d3 c1 bd e3 ec 04 bc
       0.1172035 -0.035888806 -0.09464108 -0.008113119
000020 fa a6 32 3d 10 b2 19 3d 87 d3 08 bd 13 73 9a 3b
       0.043616273 0.03752333 -0.033404853 0.004713425
000030 43 6f ab 3d b9 14 e9 3d b3 17 9b 3d d6 c3 41 bd
       0.08370831 0.11380906 0.0757288 -0.047305904
000040 75 ac 40 bd 00 7d 36 bb 0d fb 47 bd ee 98 9b 3c
       -0.047039468 -0.0027845502 -0.048823405 0.018993821
000050 37 86 e3 bb 49 5a 63 bc 20 c6 da bc a1 ea 7e bd
       -0.00694349 -0.013876506 -0.026705801 -0.06223548
000060 01 3d 00 3d a4 2d aa bc a1 8f 70 3d 51 8d aa 3d
       0.031308178 -0.020773716 0.058730725 0.08327735
000070 f2 31 03 3d a6 03 31 bd 7e f5 80 3c 14 a5 ff 3b
       0.032030053 -0.04321637 0.01574206 0.0078016613
000080 8c 26 d3 bd e7 1d 3f 3d e3 ca 0e 3c 83 60 2a 3d
       -0.103100866 0.046659376 0.008715364 0.041595947
000090 07 b3 b4 3d 41 d7 4d 3d a6 63 ed 3d dd ac 46 3d
       0.08823209 0.05025411 0.11591272 0.0485047
0000a0 45 6b 8c bc 18 d6 e8 bd 2e bf f3 bd b6 ee 1d 3d
       -0.017140994 -0.1136896 -0.11901699 0.03855773
0000b0 77 10 dd bd 16 30 d9 bd 8a b4 be bd df ef c7 bc
       -0.10794156 -0.10604875 -0.09311779 -0.024406372
0000c0 f6 f2 98 bd 51 ef f2 3d dd 73 c1 bd d8 73 bf 3d
       -0.07468216 0.11862052 -0.09445927 0.09348267
0000d0 d1 4d eb 3d c3 57 3f 3d d1 36 ab bd ca 50 b3 3d
       0.11489452 0.046714555 -0.08360065 0.08755644
0000e0 11 bc b3 bd 7f 97 54 bd e9 ab fa 3c 11 ff 33 3d
       -0.08776105 -0.05190229 0.030599551 0.043944422
0000f0 03 10 2c 3d 6b 44 a3 3d 45 89 6b bc 0e 22 c9 bd
       0.042007457 0.07972034 -0.014375989 -0.098209485
000100 55 e4 f1 bb 23 4e 49 3d 94 91 96 bd 15 52 e2 bd
       -0.0073819556 0.049146783 -0.073519856 -0.11050812
000110 f4 c5 6f 3c 3a 39 b7 bc 0e 2d d6 bd 99 70 c5 bd
       0.014634598 -0.022366155 -0.10457812 -0.09640617
000120 ab 98 fa 3c ed fd d3 3d 35 51 4e bd 85 31 3a 3c
       0.030590376 0.10351167 -0.050370414 0.011364345
000130 36 38 fa bc 9d fb fc 3c 49 86 a0 3c 06 0e ef 3c
       -0.030544382 0.030881697 0.019595282 0.029181492
000140 d3 4b 94 bc 05 9e 82 bc 89 32 88 3c 6e 61 42 bd
       -0.018102562 -0.01594449 0.01662566 -0.047456197
000150 15 47 51 bc 40 fc ba bc 65 c4 c4 bc 82 6e 86 bd
       -0.012773295 -0.02282536 -0.02401943 -0.065640464
000160 fd c8 ae bd f1 06 3a 3d b0 bd 43 3d 03 8b 71 bd
       -0.08534429 0.045416776 0.047788322 -0.058970463
000170 4f df 86 ba 49 dd 8a 3d 7e 56 92 bd ed d3 01 3d
       -0.001028994 0.06780488 -0.07145403 0.03169625
000180 dd f2 a5 3d 5f f1 da bd 4a 6d 47 3d 06 19 8f 3d
       0.08102963 -0.10690569 0.04868821 0.06987195
000190 73 55 7c 3d f4 be ba 3d f0 b7 b1 3b 35 a8 cc 3d
       0.06160493 0.09118453 0.0054235384 0.099930204
0001a0 e6 83 91 bc 98 62 73 bd 58 e6 83 3d 12 ba 8c 3d
       -0.01776309 -0.0594202 0.06440419 0.068714276
0001b0 b1 48 63 bc aa 51 5b 3d 3a a6 57 bd f6 ec 4f 3d
       -0.013872311 0.053544678 -0.05264876 0.050763093
0001c0 44 29 c5 bd 5e d5 17 3d 5a 74 a0 bc 9d 1e 32 bd
       -0.096270114 0.037068717 -0.01958673 -0.043486226
0001d0 1b 14 ff bc 2a e3 85 bd 27 90 e5 bd 51 88 32 3d
       -0.031137517 -0.06537469 -0.112091355 0.043587033
0001e0 44 a0 4b 3d 80 f0 b2 3d 33 49 46 3d 60 9f 00 bd
       0.049713388 0.08737278 0.048409652 -0.03140199
0001f0 d1 f5 b3 3d d0 02 74 bd 23 e3 75 bd 88 ff a4 bc
       0.0878712 -0.059572995 -0.060031068 -0.020141378
000200 48 67 5c ba 65 21 3a bd dd 79 cc 3d 06 3d 94 3c
       -0.0008407724 -0.045442004 0.09984181 0.018095504
000210 f8 06 d2 3c 0b d2 75 3d 0c 5e 32 3d 71 c2 d2 3c
       0.025638089 0.060014766 0.04354672 0.025727483
000220 c2 6f 5d 3c e8 87 bd bd 6a 79 d4 bd 40 33 52 39
       0.013515415 -0.09254438 -0.103747204 0.00020046253
000230 57 86 4e 3d 35 48 d9 3c 69 d4 5a bd 56 76 0c bb
       0.050421085 0.026523689 -0.053425226 -0.0021432838
000240 2f 90 ff bc 62 8d 1f 3d d2 55 d1 bb 84 2f 3f 3d
       -0.031196682 0.038953193 -0.0063884044 0.046676174
000250 d1 45 1b bd 48 a1 a7 ba df aa 02 bd 29 86 ad bc
       -0.03790838 -0.0012789154 -0.031901237 -0.021182137
000260 90 8c db 3d 40 f4 44 bc 34 2a 57 3d f9 21 93 bc
       0.107201695 -0.012021124 0.052530482 -0.017960535
000270 f7 ab 3a 3c 12 b4 41 bc 24 b7 e8 bc 29 f9 cb bc
       0.011393539 -0.011822717 -0.02840764 -0.024899082
000280 eb 2e 89 3d dc df de 3d b9 51 a9 bd 73 a1 45 bd
       0.06698402 0.108825415 -0.082675405 -0.048249673
000290 2f 51 5d bd bb ac 85 bc 4b 4f 12 3d fd 79 49 3a
       -0.0540325 -0.016317716 0.03572015 0.0007685719
0002a0 b0 d6 b3 3d 83 ac a7 3d 39 76 ca 3c e7 19 73 3b
       0.08781183 0.08187201 0.024714576 0.0037094296
0002b0 15 89 b2 bc 1a fd cc 3d 00 a6 d5 3d 15 a2 30 bd
       -0.021793881 0.10009213 0.104320526 -0.043123323
0002c0 f0 df d2 3c 54 3d 3f 3d 22 66 d5 3d a6 d4 56 bc
       0.025741547 0.046689346 0.10419871 -0.013112223
0002d0 9e 8f b0 bd df 30 b4 bc 6d 00 da 3d 93 b8 42 3d
       -0.08621143 -0.02199596 0.106446125 0.047539305
0002e0 13 ec 8d bb 5d ab 0b bd ea a6 c2 3d ed d6 11 bd
       -0.0043311208 -0.03409897 0.095044926 -0.03560536
0002f0 d3 dd 09 bd 5c 72 e9 3c 4e 7b 9f bd 0f 27 59 bc
       -0.033658814 0.028496914 -0.077871904 -0.013253941
000300 1b 80 38 bc c2 1d 68 bc 90 90 1a 3d d7 a6 b6 3d
       -0.0112610115 -0.014167251 0.03773552 0.08918541
000310 45 1d f0 bd 81 55 59 3d fa 30 9e 3d ce 1f ca bc
       -0.11724333 0.05306006 0.07724185 -0.024673369
000320 1c a9 9f bd 41 2d 8b bb d2 9c 31 3d c5 73 29 bd
       -0.07795927 -0.004247338 0.043362446 -0.041370172
000330 7e 00 05 3b 44 4b c0 bc 0c e2 a6 3d cc 08 b6 bd
       0.0020294483 -0.02347339 0.08148584 -0.088883966
000340 1f 28 e9 b9 9f 81 b9 bd ea dd 1a 3d 15 11 54 bd
       -0.00044471116 -0.090579264 0.03780929 -0.051774103
000350 94 10 29 bd 42 57 06 bd e6 11 8f bb 9a b9 3e 3c
       -0.041275576 -0.03279806 -0.0043661473 0.011640931
000360 4c 83 8b 3c be 5e 59 3d 6e 5d b5 3d 4c 2c 8e 3d
       0.01703038 0.05306887 0.08855711 0.06942043
000370 51 5c ce 3d ec db 08 bc d9 ca 77 3c d7 d8 af bb
       0.10076202 -0.008353215 0.015124046 -0.0053664255
000380 33 35 53 bc fa d5 3c bd 65 29 28 3d 18 22 95 bd
       -0.012891102 -0.0461025 0.041055102 -0.072818935
000390 3b a5 25 3d bd e8 c8 bd 3e cf e0 bc d3 77 da bd
       0.04044078 -0.09810016 -0.02744257 -0.10667386
0003a0 3f e9 d6 bd 1d 56 26 3d b1 f8 4c bd a6 fe 8c bd
       -0.10493707 0.040609468 -0.050041858 -0.06884508
0003b0 2b f3 d3 bc 5f e1 6c bc 4c 0b 0c bd 3e 7a df bd
       -0.025872787 -0.0144580295 -0.03419046 -0.10911988
0003c0 05 59 c3 3d 62 b6 92 3d e4 ed b2 3a 21 9e 44 3d
       0.095384635 0.07163693 0.0013651219 0.048002366
0003d0 30 a1 80 bd 96 9a 50 3d 58 bd ef 3a 26 3c fa bb
       -0.06280744 0.050928675 0.0018290682 -0.007636565
0003e0 16 59 34 3c 72 73 7e bc 35 82 39 3d 3b 9f 05 3d
       0.011007568 -0.015530454 0.04529019 0.032622557
0003f0 2b 2b 81 bd 48 4e 90 bd ff d0 a0 bb 00 a3 4e 3d
       -0.06307062 -0.07046181 -0.004907727 0.050448418

base_model.model.output.lora_B.weight f4 [58, 4]
000000 59 eb 04 bd 28 ee 08 3d bc 3c 03 bd ff 36 08 bd
       -0.032451008 0.03343025 -0.032040343 -0.033255573
000010 92 e1 fb bc ae 00 03 3d 58 76 ed bc 51 60 09 bd
       -0.030747209 0.03198307 -0.028987095 -0.03353912
000020 f4 c4 01 3d 08 48 0c bd 33 25 f8 3c ca 0d 0b 3d
       0.03168197 -0.03424838 0.030291175 0.033948697
000030 7b 7a 01 3d af 22 0e bd 83 9b fd 3c 45 e1 06 3d
       0.031610947 -0.034701046 0.030957943 0.032929678
000040 7f 45 02 3d 0e d1 0b bd d7 13 f9 3c 23 6d 0c 3d
       0.031804558 -0.034134917 0.030404968 0.03428377
000050 94 99 43 bc f9 78 5f bb d4 da 61 3c ff 65 0e 3d
       -0.011938471 -0.0034099205 0.013785083 0.03476524
000060 df 35 fa 3c f5 12 00 bd 02 8d ef 3c f7 cd f4 3c
       0.030543266 -0.03126808 0.029242042 0.029883368
000070 a0 e4 ff 3c 9c 25 0d bd c3 65 fa 3c 35 44 0a 3d
       0.031236947 -0.034459695 0.030566102 0.033756454
000080 bf 44 d6 3c 66 4d 0a bd 4b 73 06 3d ca 1c 64 3b
       0.026155828 -0.03376522 0.032824796 0.0034807199
000090 e2 2c 01 3d 16 e1 0c bd 83 4d fb 3c d8 70 0a 3d
       0.031536944 -0.034394346 0.030676609 0.033799022
0000a0 fe d8 03 3d 71 08 0e bd 5b f4 fd 3c 1c 62 0c 3d
       0.03218936 -0.03467602 0.031000307 0.034273252
0000b0 5d ec d9 3c 85 2f 02 bd e3 dd f7 3c 28 3b 30 3c
       0.026601965 -0.0317836 0.030257171 0.010756291
0000c0 e7 05 02 3d f8 31 0e bd 8a d4 fd 3c 69 19 0a 3d
       0.03174391 -0.034715623 0.030985136 0.03371564
0000d0 16 7c aa 3b a3 a7 06 bd c8 50 0f 3c e2 a3 c1 3b
       0.0052027805 -0.032874715 0.008747287 0.005909429
0000e0 cc a3 d5 3b 8e 79 a6 bc 88 08 d2 bc b6 b7 45 3a
       0.0065197702 -0.020321634 -0.025638834 0.00075423287
0000f0 6d dd f5 3a 90 78 c0 bc b3 78 6a bc 6e 23 cb bb
       0.0018758007 -0.023494989 -0.0143110035 -0.006199292
000100 cf 6c 01 3d 50 e7 0d bd 13 d2 fc 3c fd a4 08 3d
       0.03159791 -0.034644425 0.03086189 0.03336047
000110 22 94 fd 3c 5c 0e 0a bd c6 fd f7 3c 09 52 09 3d
       0.030954424 -0.0337051 0.030272376 0.0335255
000120 84 8a 03 3d 14 30 0e bd 37 cc fe 3c 2c 1b 0b 3d
       0.03211452 -0.03471382 0.031103237 0.03396146
000130 51 d0 01 3d 00 42 0b bd 77 ee f9 3c 6e 8e 0c 3d
       0.031692807 -0.03399849 0.030509217 0.03431552
000140 90 9e 02 3d 44 f6 0c bd e7 19 fd 3c 75 4c 0b 3d
       0.0318895 -0.034414545 0.03089614 0.034008462
000150 f8 16 03 3d e3 c4 0e bd c9 59 fd 3c 9b fa 0a 3d
       0.032004327 -0.034855735 0.030926602 0.033930402
000160 dd f0 01 3d 5a 4d 0e bd 0a 62 fc 3c 12 d1 08 3d
       0.031723846 -0.034741737 0.030808467 0.03340251
000170 02 59 02 3d f3 be 0d bd 84 1f fe 3c a4 75 09 3d
       0.031823166 -0.03460593 0.031020887 0.033559456
000180 06 8d 03 3d 36 b1 0f bd 19 93 01 3d 03 19 09 3d
       0.032116912 -0.03508111 0.031634424 0.03347112
000190 93 40 01 3d 81 56 09 bd 65 64 f8 3c 5a 7d 0d 3d
       0.031555723 -0.033529762 0.03032131 0.034543373
0001a0 57 42 03 3d e5 a8 0e bd 9c ac ff 3c da 5e 0a 3d
       0.03204569 -0.03482904 0.031210236 0.033781864
0001b0 49 07 03 3d f1 c2 0e bd 68 97 ff 3c 43 43 0a 3d
       0.03198937 -0.03485388 0.031200126 0.033755552
0001c0 70 4e 02 3d 92 ff 0d bd 71 78 fc 3c 78 8b 0a 3d
       0.031813085 -0.03466756 0.03081915 0.033824414
0001d0 1f 90 01 3d 24 8e 0e bd 40 5b fe 3c 3f 59 08 3d
       0.031631585 -0.034803525 0.03104937 0.033288237
0001e0 a6 7d 02 3d 4a 61 09 bd 34 10 f8 3c db cb 0d 3d
       0.03185811 -0.033540048 0.030281164 0.03461824
0001f0 27 31 03 3d 5a ef 0c bd d1 14 fc 3c cd 20 0d 3d
       0.032029297 -0.03440795 0.030771645 0.03445511
000200 a0 d9 01 3d a0 b2 0d bd a9 22 fe 3c 81 d8 07 3d
       0.031701684 -0.03459418 0.031022387 0.03316546
000210 84 d8 02 3d c3 8b 0b bd 19 19 fd 3c d0 48 0e 3d
       0.031944767 -0.034068834 0.030895757 0.03473741
000220 0d fa 01 3d 27 fe 0b bd ce 82 fa 3c cd 1c 0c 3d
       0.031732608 -0.034177925 0.03057995 0.034207154
000230 2b 89 01 3d c2 4d 09 bd 45 43 f6 3c db bf 0c 3d
       0.031624954 -0.03352142 0.030061373 0.034362655
000240 0d 54 00 3d 02 d7 0d bd a9 12 fd 3c 85 12 06 3d
       0.031330157 -0.034628876 0.030892687 0.032732505
000250 80 0a 02 3d 66 26 0c bd 04 5e fa 3c 36 77 0b 3d
       0.031748295 -0.034216307 0.030562408 0.034049235
000260 a8 ab 03 3d 0c af 0f bd 1b a0 00 3d c4 d7 0a 3d
       0.032146126 -0.035079047 0.03140269 0.033897176
000270 9d 50 03 3d 2f 51 0d bd ad 8c fd 3c d3 4c 0c 3d
       0.0320593 -0.03450125 0.030950869 0.034252953
000280 92 0f 03 3d e3 bd 0e bd fe dd 00 3d b8 5c 08 3d
       0.03199727 -0.03484906 0.03146171 0.03329155
000290 a6 13 02 3d 44 c0 0c bd 21 ff f9 3c 19 81 0b 3d
       0.03175702 -0.034363046 0.030517163 0.034058664
0002a0 7d a8 02 3d 2a 72 0e bd 56 49 fe 3c 6e e5 09 3d
       0.031898964 -0.034776844 0.031040829 0.033666067
0002b0 6b 7d 01 3d de b1 0c bd 66 98 fb 3c 5e dc 09 3d
       0.03161375 -0.034349315 0.030712318 0.033657424
0002c0 c8 09 01 3d 72 a2 0c bd a8 11 f9 3c fe d1 0a 3d
       0.03150347 -0.034334607 0.030403927 0.03389167
0002d0 b7 cb 02 3d ff ef 0e bd 91 1f ff 3c 90 db 08 3d
       0.03193256 -0.034896847 0.031142982 0.033412516
0002e0 dc f8 01 3d 0b a5 0e bd ac 8c fe 3c 1a a7 07 3d
       0.03173147 -0.034825366 0.031072937 0.033118345
0002f0 fc 9f 02 3d 71 f3 0e bd 69 3a 00 3d 70 89 08 3d
       0.031890854 -0.034900133 0.031305704 0.033334196
000300 4a a6 02 3d 02 24 0e bd 14 87 fe 3c 21 7d 09 3d
       0.031896867 -0.03470231 0.03107027 0.033566598
000310 d6 6a 01 3d 2a 7d 0e bd 31 0a fe 3c 30 b3 07 3d
       0.031596027 -0.034787335 0.031010719 0.03312987
000320 d1 d6 02 3d 94 f1 0a bd c4 44 fa 3c d9 43 0d 3d
       0.031943146 -0.033921793 0.030550368 0.034488533
000330 46 69 d1 3c 44 72 90 39 31 68 00 3d 59 f0 ea 3c
       0.025562894 0.00027550955 0.031349365 0.02867906
000340 cc da bf 3c 47 10 08 bd cc 41 f7 3c 47 a6 d7 3c
       0.02341976 -0.03321865 0.030182742 0.026324404
000350 ce df 00 3d b2 20 0e bd 3d 64 fb 3c 98 35 09 3d
       0.031463437 -0.03469915 0.030687446 0.033498377
000360 2f fd 02 3d 75 67 0e bd cb e7 ff 3c eb 81 0a 3d
       0.031979736 -0.034766633 0.031238457 0.033815306
000370 3c 73 03 3d 0e 2b 0f bd 21 58 fe 3c f9 ac 0a 3d
       0.032092318 -0.03495317 0.031047883 0.033856366
000380 a6 c3 02 3d 2a d8 0e bd 07 0e fb 3c ab 96 09 3d
       0.031924866 -0.03487412 0.030646337 0.033590954
000390 32 87 9f 3c bc 5e 2d b9 c0 d5 02 3d 65 f3 07 3d
       0.019473646 -0.00016533857 0.03194213 0.033191103
