stream-dev-conda-py/ollam/LoRA_pyspark/models/fully_offline_lora/adapter_model.safetensors (safetensors, 6400 bytes, 4 tensors)

base_model.model.embedding.lora_embedding_A f4 [4, 58]
0	0xbced2f31	-0.028953167
1	0x3a36a27f	0.0006966963
2	0x00000000	0.0
3	0x00000000	0.0
4	0x00000000	0.0
5	0x3cc0a238	0.023514852
6	0x3ce2ab44	0.027669556
7	0x3cdb6253	0.026780283
8	0x3cbc3065	0.022972295
9	0x00000000	0.0
10	0x00000000	0.0
11	0xbcc155b7	-0.023600442
12	0x00000000	0.0
13	0xbcdf0232	-0.027222726
14	0x3ccdb419	0.025110291
15	0x3cace02c	0.021102987
16	0x00000000	0.0
17	0x3cabdaad	0.020978296
18	0x00000000	0.0
19	0x00000000	0.0
20	0x00000000	0.0
21	0x00000000	0.0
22	0x00000000	0.0
23	0x00000000	0.0
24	0x00000000	0.0
25	0x00000000	0.0
26	0x00000000	0.0
27	0x00000000	0.0
28	0x00000000	0.0
29	0x00000000	0.0
30	0x00000000	0.0
31	0x00000000	0.0
32	0x00000000	0.0
33	0x00000000	0.0
34	0x00000000	0.0
35	0x00000000	0.0
36	0x00000000	0.0
37	0x00000000	0.0
38	0x00000000	0.0
39	0x00000000	0.0
40	0x00000000	0.0
41	0x00000000	0.0
42	0x00000000	0.0
43	0x00000000	0.0
44	0x00000000	0.0
45	0x00000000	0.0
46	0x00000000	0.0
47	0x00000000	0.0
48	0x00000000	0.0
49	0x00000000	0.0
50	0x00000000	0.0
51	0x3c8e12a2	0.01734287
52	0x3b9bc596	0.0047537787
53	0x00000000	0.0
54	0x00000000	0.0
55	0x00000000	0.0
56	0x00000000	0.0
57	0x3c0f6f55	0.008754571
58	0xbab74e10	-0.0013985056
59	0xbcfc287e	-0.030781027
60	0x00000000	0.0
61	0x00000000	0.0
62	0x00000000	0.0
63	0x3ce3aa8d	0.027791286
64	0xbd078f90	-0.033095896
65	0x3cd3e94b	0.025868079
66	0xbceea17a	-0.029129732
67	0x00000000	0.0
68	0x00000000	0.0
69	0xbcd6d22e	-0.026223268
70	0x00000000	0.0
71	0x3ccfce5d	0.025366956
72	0xbcd097a8	-0.02546294
73	0x3cbf0e6c	0.023322307
74	0x00000000	0.0
75	0xbcc5087b	-0.024051895
76	0x00000000	0.0
77	0x00000000	0.0
78	0x00000000	0.0
79	0x00000000	0.0
80	0x00000000	0.0
81	0x00000000	0.0
82	0x00000000	0.0
83	0x00000000	0.0
84	0x00000000	0.0
85	0x00000000	0.0
86	0x00000000	0.0
87	0x00000000	0.0
88	0x00000000	0.0
89	0x00000000	0.0
90	0x00000000	0.0
91	0x00000000	0.0
92	0x00000000	0.0
93	0x00000000	0.0
94	0x00000000	0.0
95	0x00000000	0.0
96	0x00000000	0.0
97	0x00000000	0.0
98	0x00000000	0.0
99	0x00000000	0.0
100	0x00000000	0.0
101	0x00000000	0.0
102	0x00000000	0.0
103	0x00000000	0.0
104	0x00000000	0.0
105	0x00000000	0.0
106	0x00000000	0.0
107	0x00000000	0.0
108	0x00000000	0.0
109	0xbcb6147b	-0.022226563
110	0x3c2a17bd	0.010381636
111	0x00000000	0.0
112	0x00000000	0.0
113	0x00000000	0.0
114	0x00000000	0.0
115	0xbcb82154	-0.02247683
116	0x3d017112	0.031601973
117	0xbc964837	-0.018344982
118	0x00000000	0.0
119	0x00000000	0.0
120	0x00000000	0.0
121	0x3ce34637	0.027743442
122	0x3cda0ec6	0.026618373
123	0x3cec2bec	0.028829537
124	0x3ce6b2ec	0.028161488
125	0x00000000	0.0
126	0x00000000	0.0
127	0x3cd53508	0.026026264
128	0x00000000	0.0
129	0x3ce54e3c	0.027991407
130	0x3c8c2e9f	0.017112074
131	0x3ce64ce8	0.028112844
132	0x00000000	0.0
133	0xbc03a6fe	-0.0080354195
134	0x00000000	0.0
135	0x00000000	0.0
136	0x00000000	0.0
137	0x00000000	0.0
138	0x00000000	0.0
139	0x00000000	0.0
140	0x00000000	0.0
141	0x00000000	0.0
142	0x00000000	0.0
143	0x00000000	0.0
144	0x00000000	0.0
145	0x00000000	0.0
146	0x00000000	0.0
147	0x00000000	0.0
148	0x00000000	0.0
149	0x00000000	0.0
150	0x00000000	0.0
151	0x00000000	0.0
152	0x00000000	0.0
153	0x00000000	0.0
154	0x00000000	0.0
155	0x00000000	0.0
156	0x00000000	0.0
157	0x00000000	0.0
158	0x00000000	0.0
159	0x00000000	0.0
160	0x00000000	0.0
161	0x00000000	0.0
162	0x00000000	0.0
163	0x00000000	0.0
164	0x00000000	0.0
165	0x00000000	0.0
166	0x00000000	0.0
167	0x3caeb403	0.02132607
168	0x3cae90cf	0.021309284
169	0x00000000	0.0
170	0x00000000	0.0
171	0x00000000	0.0
172	0x00000000	0.0
173	0x3cb9d362	0.022683803
174	0xbcea6eab	-0.028617224
175	0x3cd7d9f7	0.02634905
176	0x00000000	0.0
177	0x00000000	0.0
178	0x00000000	0.0
179	0x3ce64007	0.028106702
180	0xbcd93f36	-0.0265194
181	0xbcdedf0f	-0.027205972
182	0x3cf712fd	0.030160422
183	0x00000000	0.0
184	0x00000000	0.0
185	0xbc976225	-0.018479416
186	0x00000000	0.0
187	0xbcce7af8	-0.02520512
188	0xbc96c642	-0.018405084
189	0x3ceecf96	0.029151719
190	0x00000000	0.0
191	0xbc413621	-0.0117926905
192	0x00000000	0.0
193	0x00000000	0.0
194	0x00000000	0.0
195	0x00000000	0.0
196	0x00000000	0.0
197	0x00000000	0.0
198	0x00000000	0.0
199	0x00000000	0.0
200	0x00000000	0.0
201	0x00000000	0.0
202	0x00000000	0.0
203	0x00000000	0.0
204	0x00000000	0.0
205	0x00000000	0.0
206	0x00000000	0.0
207	0x00000000	0.0
208	0x00000000	0.0
209	0x00000000	0.0
210	0x00000000	0.0
211	0x00000000	0.0
212	0x00000000	0.0
213	0x00000000	0.0
214	0x00000000	0.0
215	0x00000000	0.0
216	0x00000000	0.0
217	0x00000000	0.0
218	0x00000000	0.0
219	0x00000000	0.0
220	0x00000000	0.0
221	0x00000000	0.0
222	0x00000000	0.0
223	0x00000000	0.0
224	0x00000000	0.0
225	0x3cb25c86	0.021772634
226	0x3ca9402a	0.020660479
227	0x00000000	0.0
228	0x00000000	0.0
229	0x00000000	0.0
230	0x00000000	0.0
231	0xbcadb20b	-0.021203062

base_model.model.embedding.lora_embedding_B f4 [128, 4]
0	0x3d8ce891	0.06880296
1	0x3f070823	0.5274679
2	0x3ea6ad11	0.32553914
3	0x3f1e9aaf	0.6195478
4	0xbdaaadc3	-0.08333924
5	0x3ec53104	0.38513958
6	0xbfd88283	-1.6914829
7	0xbfd51b67	-1.6648988
8	0xbf334d32	-0.70039666
9	0xbf0a2e2d	-0.5397671
10	0xbf755ff8	-0.9584956
11	0x3eb5adaf	0.35484073
12	0x3fe0fb2e	1.7576654
13	0xbe4fc244	-0.2028895
14	0x3ee30cac	0.44345605
15	0x3fd8a462	1.6925166
16	0x3e589789	0.21151556
17	0x3d6b6d1d	0.057477105
18	0xbf97f594	-1.187182
19	0x3e2f742f	0.17134164
20	0x3e911f13	0.2834402
21	0x3f8c53ee	1.0963113
22	0x3ece6f3c	0.4031924
23	0xbc72c36e	-0.014817102
24	0x3f32bfce	0.6982392
25	0xbfe5a833	-1.7941955
26	0x3f769cdd	0.96333104
27	0x3f5d6179	0.86476856
28	0x3e4eef8b	0.20208566
29	0x3e47ca5a	0.19510785
30	0x3e538771	0.20657136
31	0xbf51ed67	-0.8200287
32	0xbfb0d127	-1.3813828
33	0x3dde1f36	0.10845797
34	0x3e603c66	0.2189804
35	0xbd5aaca6	-0.053387307
36	0xbeb1211a	-0.34595567
37	0x3ebb98da	0.36640054
38	0xc04cb8f7	-3.1987894
39	0x3faf0aec	1.3675208
40	0xbf62e267	-0.8862671
41	0xbee35596	-0.44401234
42	0xbe361079	-0.17779721
43	0x3f325b05	0.69670135
44	0xbedccac2	-0.43123442
45	0xbf88ce65	-1.0687987
46	0x3fdc058c	1.7189193
47	0x3e66ef21	0.22552158
48	0x4012afe7	2.2919862
49	0x3f3faf6b	0.7487704
50	0xbf86a699	-1.0519592
51	0xbfcd4a83	-1.6038364
52	0x3fc0a077	1.504897
53	0xbef59db4	-0.4797188
54	0xbc409d6c	-0.011756282
55	0x3f022a48	0.50845766
56	0xbf79c0b0	-0.9755964
57	0xbf5879af	-0.84560674
58	0xbfd8ce3e	-1.693794
59	0x3e6a3831	0.22872998
60	0xc026891e	-2.602119
61	0xbf32abfc	-0.6979368
62	0xbee364d4	-0.44412863
63	0x3f753044	0.9577677
64	0x3f462b5e	0.77409923
65	0x3ec9bfe8	0.39404225
66	0x3e5dedeb	0.2167279
67	0xbf7cbb9f	-0.9872379
68	0xbf43121d	-0.76199514
69	0xbf46461f	-0.77450746
70	0xbf62114a	-0.8830763
71	0xbf8d0a0c	-1.1018691
72	0x3fc975c1	1.5739061
73	0xbfe14c24	-1.7601361
74	0xbf49f96d	-0.7889622
75	0xbfa2b8e9	-1.271268
76	0xbdc47861	-0.09593273
77	0x3fb66ed7	1.4252576
78	0xbd57a38d	-0.05264621
79	0x3f7f85eb	0.9981372
80	0xbfd676c2	-1.6754992
81	0x3f571783	0.8402025
82	0x3fc83e3f	1.5643996
83	0x3f9b085b	1.2111925
84	0x3e1edfa0	0.15514994
85	0x3ebc1931	0.3673797
86	0xbb0b0c67	-0.002121711
87	0x3f4bf7fd	0.79675275
88	0x3f84c8db	1.0373796
89	0x3fe49fcd	1.7861267
90	0x3cb85e0f	0.022505788
91	0x3ea73edc	0.32665145
92	0x3d4aabbb	0.04948018
93	0xbf8f9aa1	-1.1219064
94	0x3fdd67d2	1.7297308
95	0xbf8d2fa6	-1.1030166
96	0x3f247b77	0.6425089
97	0x3d02a4a2	0.031895287
98	0xbf8d7105	-1.1050116
99	0x3fe30981	1.7737275
100	0x3e446086	0.19177446
101	0x3fda9fb9	1.7079993
102	0x3f92ef82	1.1479342
103	0x3e3fbb2a	0.18723741
104	0x3f56a1bf	0.83840555
105	0xbf627bb2	-0.88469994
106	0x3f0c57cf	0.54821485
107	0xbfb870e1	-1.4409448
108	0xbf1ac520	-0.6045704
109	0xbfe3e648	-1.7804651
110	0x3eeb14d2	0.45914322
111	0xbf44f721	-0.7693959
112	0xbeee1f75	-0.46508375
113	0x4007b559	2.1204436
114	0x3f8f8129	1.1211292
115	0xbf240e1e	-0.6408404
116	0xbddd06a5	-0.10792283
117	0xbf9dbcb6	-1.2323215
118	0xbedfe3f5	-0.43728605
119	0x3f433782	0.76256573
120	0x3f3f834e	0.7480973
121	0x3e617545	0.22017391
122	0xbf3b69ce	-0.7320832
123	0x3f83eaf3	1.0306076
124	0x3d63f040	0.055649042
125	0xbef8ee08	-0.48619103
126	0xbe22c186	-0.15894136
127	0xbe019423	-0.12654166
128	0xbfe4b91a	-1.7868989
129	0xbee108d2	-0.43952042
130	0x3f4fe69d	0.8121126
131	0x3f4091c3	0.75222415
132	0x3e3df93f	0.18552111
133	0xbf33e8f0	-0.7027731
134	0x3fa9b802	1.325928
135	0x3ecd0de2	0.40049654
136	0xbf02de3b	-0.51120347
137	0xbd66830a	-0.056277312
138	0x3d81072b	0.06300195
139	0xbecda457	-0.40164444
140	0x3de922d7	0.11383598
141	0xbf444c8c	-0.766793
142	0x3fc298d9	1.5202895
143	0x3f8de305	1.1084906
144	0x3f0959ce	0.53652656
145	0x3f134ca1	0.575388
146	0xbfbd981f	-1.4812049
147	0xbeec3713	-0.46135768
148	0xbf335848	-0.7005658
149	0xbf745c8b	-0.9545371
150	0xbb4e9284	-0.0031520436
151	0xbf02d1db	-0.51101464
152	0x3fb20e26	1.3910568
153	0xbf4c0b94	-0.79705167
154	0x3e5b04dc	0.21388572
155	0xbf12ec51	-0.5739184
156	0x3ff2d240	1.8970413
157	0xbfa8e8dd	-1.3196064
158	0x3f0ae52b	0.5425593
159	0xbe68aeac	-0.22722882
160	0xbf3ab503	-0.7293245
161	0xbe315513	-0.1731761
162	0x3fbcdeb1	1.475546
163	0x40298e54	2.649312
164	0xbf02d6f5	-0.5110925
165	0xbf23f7d8	-0.64050055
166	0xbe8e38e0	-0.27777767
167	0xc00cb50e	-2.1985507
168	0x3e1794b7	0.14802824
169	0xbeda789b	-0.4267014
170	0x3f874c64	1.0570188
171	0x3e47709c	0.19476551
172	0x3f9d0ff6	1.2270496
173	0xbcca7f00	-0.024718761
174	0xc00f012a	-2.234446
175	0x3f5510e5	0.83228904
176	0xbfdf8396	-1.7462032
177	0xbdaec184	-0.08533004
178	0x3f98f434	1.1949525
179	0x3cc76146	0.024338376
180	0x3f964c41	1.1742021
181	0x3fa1e23d	1.2647167
182	0xbf39e3fe	-0.72613513
183	0x3fa30a4a	1.2737515
184	0xbd6aa8e7	-0.057289984
185	0xbf4ded7b	-0.8044049
186	0x3effff83	0.49999627
187	0x3e183d76	0.14867195
188	0xbf5fb673	-0.8738777
189	0x3f63bbd5	0.88958484
190	0xbea3544d	-0.31900254
191	0x3fe520c0	1.790062
192	0x3e61345c	0.2199263
193	0x3e221357	0.1582769
194	0x3fecbca9	1.8495075
195	0x3ed91e69	0.42406014
196	0x3e9e9050	0.30969477
197	0xbf759a16	-0.9593824
198	0x3e740da1	0.23833324
199	0xbf8db5dd	-1.1071125
200	0xbe0e46cf	-0.13894199
201	0x3d1f334c	0.03886728
202	0x3d344862	0.044014342
203	0xbf8ced34	-1.1009889
204	0x3f88214b	1.063516
205	0xbf7d9c8a	-0.99066985
206	0xbeefd273	-0.46840248
207	0xbe35ad54	-0.177419
208	0xbdefae4e	-0.11703168
209	0x3f52919a	0.8225342
210	0x3f5c18d2	0.8597537
211	0x3edbe931	0.42951348
212	0xbf605e52	-0.8764392
213	0xbf1fb8a5	-0.6239112
214	0x3f2e7cfb	0.68159455
215	0x3e8147bf	0.2525005
216	0xbe23e076	-0.16003594
217	0x3f5f5cac	0.8725078
218	0x3e662277	0.22474085
219	0x3f5730c6	0.840588
220	0x3f26d84d	0.651738
221	0x3dde917a	0.10867591
222	0xbdc7bb5d	-0.097525336
223	0xbfbd9ba7	-1.4813126
224	0x3f471616	0.77768075
225	0x3f9872b3	1.1910003
226	0x3f482ab3	0.78190154
227	0xbfa6de78	-1.3036642
228	0x3f9fa79f	1.2473029
229	0xbf36b75e	-0.71373546
230	0x3fb3418f	1.4004382
231	0xbfec9112	-1.8481772
232	0x3ee31109	0.44348934
233	0x3f63ca12	0.8898021
234	0x3ea4105b	0.32043728
235	0xbf744b23	-0.9542715
236	0x3d8d010d	0.06884966
237	0xbf89baa8	-1.0760088
238	0x3f011e2b	0.5043666
239	0xbf7c3d4a	-0.9853102
240	0x3f5ddbd5	0.8666356
241	0x3f13a7b4	0.5767777
242	0xc019e117	-2.4043634
243	0x3f294f13	0.6613628
244	0xbfd087e9	-1.6291476
245	0xbf82a72e	-1.0207269
246	0xbd414b30	-0.047190845
247	0xbd82d864	-0.063889295
248	0xbf8200b5	-1.0156466
249	0xbf91feb4	-1.1405854
250	0x3f106f8a	0.56420195
251	0xbf22405e	-0.63379467
252	0x3fa3b9ea	1.2791111
253	0x3ea78a40	0.32722664
254	0x3f440afd	0.76579267
255	0x3ebd6205	0.36988845

base_model.model.output.lora_A.weight f4 [4, 128]
0	0x3d51d532	0.05122871
1	0x3c774b84	0.015093688
2	0xbdfcedb7	-0.12350028
3	0x3d9b533a	0.075842336
4	0x3df59e43	0.11993077
5	0xbd18bb54	-0.037288025
6	0xbdc78672	-0.0974244
7	0xbbeabf6b	-0.007163932
8	0x3d274c9f	0.040844556
9	0x3d285438	0.041095942
10	0xbcfa91c6	-0.030587088
11	0x3ad4b387	0.001622782
12	0x3db240f7	0.08703797
13	0x3def920d	0.11697779
14	0x3d9f9759	0.07792539
15	0xbd3548d4	-0.044258907
16	0xbd36b9e0	-0.044610858
17	0x38a966d6	8.077703e-05
18	0xbd54fc89	-0.05199865
19	0x3caaae56	0.020835083
20	0xbb8781c5	-0.004135343
21	0xbc2ee0ba	-0.010673696
22	0xbcc10f53	-0.023566877
23	0xbd830dba	-0.063991025
24	0x3ced354e	0.028956082
25	0xbc8f6534	-0.017504312
26	0x3d7e6e40	0.06211686
27	0x3db033f0	0.08603656
28	0x3d0f6dfd	0.035017002
29	0xbd3f16b6	-0.04665252
30	0x3c9a2b09	0.018819349
31	0x3c3148e3	0.0108206
32	0xbdd8b098	-0.105805576
33	0x3d325b45	0.043544073
34	0x3c41da61	0.011831851
35	0x3d3778bf	0.044792887
36	0x3dbb922a	0.09158738
37	0x3d40b5a5	0.04704823
38	0x3df3c92e	0.11903606
39	0x3d3a6783	0.045508873
40	0xbca5b8cc	-0.02022972
41	0xbdef40b0	-0.1168226
42	0xbdfa15e7	-0.12211209
43	0x3d2bd832	0.041954227
44	0xbde3bca5	-0.111199655
45	0xbddf67cf	-0.10908472
46	0xbdc434a0	-0.0958035
47	0xbcb7c913	-0.022434747
48	0xbd9f2a09	-0.077716894
49	0x3df9254f	0.12165319
50	0xbdc7dc99	-0.097588725
51	0x3dc272fa	0.09494586
52	0x3df1965e	0.117962584
53	0x3d30cbff	0.043163296
54	0xbdb1becd	-0.086789705
55	0x3db9a75c	0.090651244
56	0xbdb9bb45	-0.09068922
57	0xbd60e798	-0.054908365
58	0x3ce048e5	0.027378509
59	0x3d40b6eb	0.047049444
60	0x3d228d98	0.039685816
61	0x3da97010	0.08273327
62	0xbc39212a	-0.011299411
63	0xbdcf18e9	-0.10112173
64	0xbc21a7a5	-0.00986663
65	0x3d3df893	0.046379637
66	0xbd9cf794	-0.07664409
67	0xbde8a061	-0.11358715
68	0x3c8e6c59	0.017385649
69	0xbccec87d	-0.025242085
70	0xbddd2fd2	-0.108001366
71	0xbdcb80f1	-0.09936703
72	0x3d0a1491	0.03371102
73	0x3dda6b42	0.10664989
74	0xbd5c8e92	-0.053846903
75	0x3c70f083	0.01470578
76	0xbce43978	-0.027859434
77	0x3d094c4d	0.03352003
78	0x3c86c3b6	0.016450744
79	0x3d044e4e	0.03230124
80	0xbc77cce2	-0.015124531
81	0xbc729de1	-0.014808149
82	0x3c5bcf57	0.013416133
83	0xbd357cdf	-0.04430854
84	0xbc1cd401	-0.00957203
85	0xbcd4728f	-0.025933532
86	0xbcd76e78	-0.026297793
87	0xbd8d09e0	-0.06886649
88	0xbdb52d41	-0.08846522
89	0x3d44b295	0.04802187
90	0x3d3526ec	0.044226572
91	0xbd7e947d	-0.06215333
92	0xbb843196	-0.0040342314
93	0x3d9158a9	0.07096989
94	0xbd97bb9d	-0.07408831
95	0x3d0cf93b	0.034417372
96	0x3dac2964	0.08406332
97	0xbde17600	-0.11008835
98	0x3d52d98f	0.05147701
99	0x3d92defd	0.07171438
100	0x3d844de1	0.06460167
101	0x3dc0fd2e	0.0942329
102	0x3b394046	0.002826707
103	0x3dd32579	0.10309882
104	0xbc70a997	-0.014688871
105	0xbd7fdd79	-0.062467072
106	0x3d8a5783	0.06754973
107	0x3d931982	0.071825996
108	0xbc89a5c0	-0.016802669
109	0x3d67a70e	0.0565558
110	0xbd609439	-0.054828856
111	0x3d5d9250	0.054094613
112	0xbdcb5548	-0.099283755
113	0x3d17ea0c	0.03708844
114	0xbc87d6c9	-0.01658191
115	0xbd3e68a7	-0.046486523
116	0xbce4ebb2	-0.02794442
117	0xbd8a9c7a	-0.06768127
118	0xbde93907	-0.1138783
119	0x3d250ca6	0.040295266
120	0x3d3ec2f7	0.04657265
121	0x3db92027	0.09039336
122	0x3d3a3a47	0.045465734
123	0xbd0d02cb	-0.03442649
124	0x3db9f902	0.090806976
125	0xbd6c3e69	-0.057676706
126	0xbd8114c5	-0.063027896
127	0xbcbd5892	-0.023113523
128	0xbb826ab6	-0.003980006
129	0xbd2d4634	-0.04230328
130	0x3dd31fa3	0.103087686
131	0x3c96188a	0.018322248
132	0x3cbb4169	0.022858338
133	0x3d7a779b	0.06114922
134	0x3d3f11b8	0.046647757
135	0x3ccafe35	0.024779418
136	0x3c875715	0.016521016
137	0xbdc4e3c8	-0.09613758
138	0xbdda6b60	-0.106650114
139	0x3b57a459	0.0032904355
140	0x3d407ea4	0.046995774
141	0x3cbdfde9	0.023192363
142	0xbd6487dc	-0.055793628
143	0xbbad74f5	-0.0052934834
144	0xbd0a6fe5	-0.033798117
145	0x3d138d31	0.036023322
146	0xbb4b8c5a	-0.0031058998
147	0x3d3a1f90	0.045440257
148	0xbd2767e1	-0.04087055
149	0xbb953477	-0.0045533734
150	0xbd0fed1f	-0.035138246
151	0xbc9d23e8	-0.01918216
152	0x3de01c60	0.10942912
153	0xbc7c423a	-0.015396649
154	0x3d494cbb	0.04914544
155	0xbca75f40	-0.02043116
156	0x3c075040	0.008258879
157	0xbc056fa8	-0.008144297
158	0xbd0184ed	-0.03162091
159	0xbce59954	-0.028027214
160	0x3d8e6716	0.06953256
161	0x3de57ede	0.112058386
162	0xbdafe239	-0.085880704
163	0xbd52ee59	-0.051496837
164	0xbd6b4947	-0.05744293
165	0xbc546fa2	-0.012966068
166	0x3d05340a	0.03252033
167	0x3b7aa190	0.0038243271
168	0x3dba502d	0.090973236
169	0x3dae4a51	0.085102685
170	0x3ce4f375	0.02794812
171	0x398ee583	0.0002725535
172	0xbc96d6b6	-0.018412929
173	0x3dd365fa	0.10322185
174	0x3ddae6b1	0.10688532
175	0xbd37c47d	-0.04486512
176	0x3cee51f0	0.029091805
177	0x3d327f5b	0.043578487
178	0x3ddc073c	0.10743567
179	0xbc67e101	-0.014152766
180	0xbdb71597	-0.08939665
181	0xbc96d5c5	-0.01841248
182	0x3de0d05a	0.1097724
183	0x3d35c374	0.04437585
184	0xbaaf6a20	-0.0013383068
185	0xbcfeb01d	-0.031089837
186	0x3dc97a3b	0.09837767
187	0xbd1f176f	-0.038840707
188	0xbd0035dc	-0.031301364
189	0x3cd02e86	0.02541281
190	0xbda5f844	-0.081039935
191	0xbc27f1d0	-0.010250524
192	0xbc106286	-0.008812552
193	0xbc38312c	-0.011242192
194	0x3d27bcf1	0.040951673
195	0x3dbd4155	0.09240977
196	0xbdf6ef58	-0.1205737
197	0x3d650b0f	0.05591875
198	0x3da525ba	0.080638364
199	0xbcb102bf	-0.021607755
200	0xbda64708	-0.08119017
201	0xbbfa3d17	-0.007636677
202	0x3d40758a	0.046987094
203	0xbd3710b6	-0.04469367
204	0xba613e83	-0.0008592384
205	0xbcd67695	-0.026179591
206	0x3dad7ec1	0.08471442
207	0xbdbc97f3	-0.092086695
208	0xbb6bc2f0	-0.0035974346
209	0xbdb97fbd	-0.09057567
210	0x3d285386	0.04109528
211	0xbd617855	-0.0550464
212	0xbd36b229	-0.0446035
213	0xbcf2a1d7	-0.029618187
214	0xbb053321	-0.0020324665
215	0x3c7529b6	0.014963558
216	0x3ca5f160	0.020256698
217	0x3d4e9066	0.050430678
218	0x3dbc70bf	0.09201192
219	0x3d94e323	0.072698854
220	0x3dd4cf59	0.10391111
221	0xbc3e4038	-0.011611991
222	0x3c9061c6	0.017624747
223	0xbc04fd0e	-0.008116974
224	0xbc834bad	-0.016027296
225	0xbd2f3cea	-0.0427827
226	0x3d1c79cf	0.038202103
227	0xbd9812de	-0.07425474
228	0x3d190eb5	0.03736754
229	0xbdcf56b9	-0.10123963
230	0xbccd6e77	-0.025077088
231	0xbde11edf	-0.10992216
232	0xbddd5d21	-0.108087786
233	0x3d336f22	0.043807156
234	0xbd5a5468	-0.053303152
235	0xbd939a61	-0.0720718
236	0xbcbba8b6	-0.022907596
237	0xbc90731a	-0.01763301
238	0xbd01a9d9	-0.03165612
239	0xbde67472	-0.11252679
240	0x3dc9b9e5	0.0984991
241	0x3d947e10	0.07250607
242	0xbae35913	-0.0017345272
243	0x3d516f66	0.05113163
244	0xbd875719	-0.066084094
245	0x3d5c09fa	0.053720452
246	0x3b81675d	0.0039490894
247	0xbb8ada2b	-0.0042374334
248	0x3c69795b	0.014250125
249	0xbc98b68c	-0.018641733
250	0x3d45b8a1	0.04827178
251	0x3d12494e	0.03571444
252	0xbd875894	-0.06608692
253	0xbd92914d	-0.0715662
254	0xbaf45d74	-0.0018643574
255	0x3d5b0c32	0.053478427

base_model.model.output.lora_B.weight f4 [58, 4]
0	0xbd11d69c	-0.035605058
1	0x3d17b3ba	0.037036635
2	0xbd0fdbda	-0.035121776
3	0xbd15b033	-0.03654499
4	0xbd053b74	-0.032527402
5	0x3d0c0b59	0.03419051
6	0xbcfbae32	-0.030722711
7	0xbd11fbd4	-0.035640553
8	0x3d0cc592	0.034368105
9	0xbd18d763	-0.037314784
10	0x3d064e63	0.0327896
11	0x3d1762f9	0.036959622
12	0x3d0c2c06	0.03422167
13	0xbd1b0d82	-0.03785468
14	0x3d091d7e	0.03347539
15	0x3d1278e9	0.03575984
16	0x3d0d6867	0.034523394
17	0xbd185ded	-0.03719895
18	0x3d06e152	0.032929726
19	0x3d190140	0.037354708
20	0xbc28be97	-0.010299346
21	0xbbdb7430	-0.0066972002
22	0x3c8d851f	0.017275391
23	0x3d1cc795	0.038276274
24	0x3d06a24c	0.032869622
25	0xbd0a0d17	-0.03370389
26	0x3d010701	0.03150082
27	0x3d049e8c	0.032377765
28	0x3d0a6120	0.033784032
29	0xbd195021	-0.037429933
30	0x3d06f557	0.032948818
31	0x3d15cac2	0.036570318
32	0x3cee1e05	0.029067049
33	0xbd16decc	-0.03683357
34	0x3d116f98	0.035506815
35	0x3bcabb2f	0.006186865
36	0x3d0c3f5d	0.034240115
37	0xbd19a823	-0.037513863
38	0x3d082ab3	0.033243846
39	0x3d16ebf5	0.03684612
40	0x3d0f39a3	0.034967076
41	0xbd1af6cc	-0.03783302
42	0x3d09abee	0.03361123
43	0x3d190bf6	0.037364922
44	0x3ceca962	0.028889362
45	0xbd0dbf21	-0.034606103
46	0x3d0600de	0.03271567
47	0x3c5ad43a	0.013356263
48	0x3d0d5277	0.034502473
49	0xbd1b51ef	-0.037919935
50	0x3d09ba59	0.03362498
51	0x3d16a625	0.03677954
52	0x3bf40324	0.0074466635
53	0xbd12edf0	-0.035871446
54	0x3c318414	0.010834713
55	0x3c0fabae	0.008768959
56	0x3c1797d5	0.009252508
57	0xbcb576fd	-0.022151465
58	0xbcdcdf11	-0.026961835
59	0x39dd54bf	0.00042215546
60	0x3bb077ab	0.0053853593
61	0xbce06e6a	-0.0273964
62	0xbc523195	-0.012829204
63	0xbb487a11	-0.0030590335
64	0x3d0c3458	0.034229606
65	0xbd1a9763	-0.03774203
66	0x3d08b93c	0.03337978
67	0x3d148cb7	0.03626701
68	0x3d09332f	0.033496078
69	0xbd1648a9	-0.036690388
70	0x3d05d35e	0.03267228
71	0x3d1528f4	0.03641601
72	0x3d0f03ac	0.03491561
73	0xbd1bae8e	-0.038008265
74	0x3d0a51ad	0.0337693
75	0x3d17cab8	0.037058562
76	0x3d0cffe3	0.03442372
77	0xbd17cc2f	-0.03705996
78	0x3d076362	0.033053763
79	0x3d19468a	0.037420787
80	0x3d0db0e0	0.03459251
81	0xbd198fc9	-0.03749064
82	0x3d08fe1b	0.03344546
83	0x3d17b052	0.037033387
84	0x3d0e46f9	0.034735654
85	0xbd1bc83b	-0.03803275
86	0x3d09459a	0.033513643
87	0x3d175e78	0.036955327
88	0x3d0cde8c	0.034391925
89	0xbd1b2b95	-0.03788336
90	0x3d0896b4	0.033346847
91	0x3d14d596	0.036336504
92	0x3d0d0b0e	0.03443437
93	0xbd1a2b8c	-0.037639186
94	0x3d093d35	0.033505637
95	0x3d154d8c	0.036450908
96	0x3d0ec5b1	0.034856502
97	0xbd1cf97f	-0.038323876
98	0x3d0c7eca	0.034300603
99	0x3d15370e	0.036429457
100	0x3d0c54f8	0.03426072
101	0xbd15959d	-0.036519635
102	0x3d067c87	0.032833602
103	0x3d1a50ef	0.03767484
104	0x3d0e4aff	0.03473949
105	0xbd1b7319	-0.037951563
106	0x3d0a5f0f	0.03378206
107	0x3d168a1f	0.036752816
108	0x3d0e2d73	0.034711313
109	0xbd1bb596	-0.03801497
110	0x3d0a7577	0.03380343
111	0x3d16897b	0.036752205
112	0x3d0d6f65	0.034530062
113	0xbd1ad74c	-0.03780298
114	0x3d08c638	0.03339216
115	0x3d16f0e0	0.03685081
116	0x3d0c8373	0.034305047
117	0xbd1b84c6	-0.03796842
118	0x3d09c040	0.03363061
119	0x3d146ec5	0.03623845
120	0x3d0db19a	0.034593202
121	0xbd159e81	-0.036528114
122	0x3d0652b5	0.03279372
123	0x3d1a8fe4	0.03773488
124	0x3d0eb3bd	0.03483938
125	0xbd19ce94	-0.037550524
126	0x3d08c9c0	0.03339553
127	0x3d1a12b3	0.03761549
128	0x3d0cd02f	0.034378227
129	0xbd1ae90f	-0.03781992
130	0x3d09a575	0.033605058
131	0x3d13cd30	0.036084354
132	0x3d0e4934	0.03473778
133	0xbd1830b5	-0.037155826
134	0x3d094b36	0.033518992
135	0x3d1b6191	0.037934843
136	0x3d0d00ae	0.034424476
137	0xbd18739d	-0.037219632
138	0x3d079152	0.033097573
139	0x3d189e47	0.03726032
140	0x3d0c9a26	0.034326695
141	0xbd158885	-0.03650715
142	0x3d054765	0.03253879
143	0x3d195ccb	0.03744201
144	0x3d0ad5b0	0.033895195
145	0xbd1a9db1	-0.037748042
146	0x3d08c3d3	0.033389878
147	0x3d1190bf	0.03553843
148	0x3d0d03df	0.03442752
149	0xbd189f75	-0.037261445
150	0x3d077199	0.03306732
151	0x3d17d025	0.037063736
152	0x3d0ef13f	0.03489804
153	0xbd1cdaa4	-0.03829445
154	0x3d0b7775	0.03404947
155	0x3d1743ba	0.036929823
156	0x3d0ea86f	0.0348286
157	0xbd1a1a40	-0.03762269
158	0x3d0971a5	0.033555645
159	0x3d18f868	0.037346274
160	0x3d0e0895	0.034676153
161	0xbd1bc29d	-0.038027395
162	0x3d0b824d	0.03405981
163	0x3d143552	0.036183663
164	0x3d0d3c90	0.034481585
165	0xbd198180	-0.037477016
166	0x3d076e6a	0.033064283
167	0x3d18067a	0.03711555
168	0x3d0dac3d	0.034588087
169	0xbd1b7128	-0.03794971
170	0x3d09a9a5	0.03360905
171	0x3d1608b9	0.036629412
172	0x3d0c44e3	0.034245383
173	0xbd193602	-0.03740502
174	0x3d080673	0.033209275
175	0x3d15ed47	0.03660324
176	0x3d0c4646	0.034246705
177	0xbd1984b5	-0.037480075
178	0x3d0717c6	0.032981656
179	0x3d1778f3	0.03698058
180	0x3d0db607	0.034597423
181	0xbd1bdde0	-0.038053393
182	0x3d0a0b2e	0.033702068
183	0x3d14c52f	0.03632086
184	0x3d0cd377	0.034381356
185	0xbd1baa1e	-0.038004033
186	0x3d09c28e	0.033632807
187	0x3d137550	0.03600055
188	0x3d0d7608	0.03453639
189	0xbd1bc306	-0.038027786
190	0x3d0ab23a	0.033861376
191	0x3d1458f7	0.036217656
192	0x3d0d7fc4	0.034545675
193	0xbd1ad1bc	-0.037797675
194	0x3d099ccb	0.033596795
195	0x3d156b47	0.03647926
196	0x3d0c3341	0.034228567
197	0xbd1b6386	-0.03793671
198	0x3d096df2	0.033552118
199	0x3d137ecf	0.036009606
200	0x3d0e0c1a	0.03467951
201	0xbd1750f8	-0.036942452
202	0x3d078309	0.03308395
203	0x3d19f0fe	0.037583344
204	0x3ce66b60	0.028127372
205	0xba9aa233	-0.0011797607
206	0x3d0b2ae0	0.033976436
207	0x3d004011	0.0313111
208	0x3cd0b87f	0.0254786
209	0xbd13b672	-0.036062665
210	0x3d054634	0.032537654
211	0x3cea9647	0.028636111
212	0x3d0bec49	0.034160886
213	0xbd1b0fac	-0.037856743
214	0x3d083bbb	0.03326009
215	0x3d15892f	0.03650778
216	0x3d0e4f92	0.034743853
217	0xbd1b78af	-0.03795689
218	0x3d0acbad	0.033885647
219	0x3d170031	0.036865417
220	0x3d0ebccb	0.034848016
221	0xbd1c6b29	-0.038188133
222	0x3d09e4c3	0.03366543
223	0x3d171425	0.036884446
224	0x3d0ddea9	0.034636173
225	0xbd1bd87b	-0.03804825
226	0x3d07f39a	0.0331913
227	0x3d15b864	0.0365528
228	0x3cb2d234	0.021828748
229	0xbb10bb66	-0.0022084354
230	0x3d0e8b8e	0.03480106
231	0x3d14c28d	0.03631835
