stream-dev-conda-py/ollam/LoRA_pyspark/models/fully_offline_lora/checkpoint-30/adapter_model.safetensors (safetensors, 6400 bytes, 4 tensors)

base_model.model.embedding.lora_embedding_A f4 [4, 58]
-0.020705685 0.00208543 0.0 0.0 0.0 0.018849213 0.020109257 0.02009636
0.017849285 0.0 0.0 -0.017020855 0.0 -0.019353246 0.01917217 0.016311929
0.0 0.015533561 0.0 0.0 0.0 0.0 0.0 0.0
0.0 0.0 0.0 0.0 0.0 0.0 0.0 0.0
0.0 0.0 0.0 0.0 0.0 0.0 0.0 0.0
0.0 0.0 0.0 0.0 0.0 0.0 0.0 0.0
0.0 0.0 0.0 0.013438078 0.00093151676 0.0 0.0 0.0
0.0 0.0060996134 -0.00726533 -0.020948904 0.0 0.0 0.0 0.020670028
-0.022458805 0.019818945 -0.020791912 0.0 0.0 -0.018727414 0.0 0.019146753
-0.019491851 0.018408503 0.0 -0.016385706 0.0 0.0 0.0 0.0
0.0 0.0 0.0 0.0 0.0 0.0 0.0 0.0
0.0 0.0 0.0 0.0 0.0 0.0 0.0 0.0
0.0 0.0 0.0 0.0 0.0 0.0 0.0 0.0
0.0 0.0 0.0 0.0 0.0 -0.015373487 0.009974737 0.0
0.0 0.0 0.0 -0.01588425 0.02213397 -0.01770743 0.0 0.0
0.0 0.021046953 0.020820579 0.020781813 0.02043273 0.0 0.0 0.019255325
0.0 0.020404035 0.007306279 0.019347716 0.0 -0.004519451 0.0 0.0
0.0 0.0 0.0 0.0 0.0 0.0 0.0 0.0
0.0 0.0 0.0 0.0 0.0 0.0 0.0 0.0
0.0 0.0 0.0 0.0 0.0 0.0 0.0 0.0
0.0 0.0 0.0 0.0 0.0 0.0 0.0 0.014961046
0.014806459 0.0 0.0 0.0 0.0 0.016110592 -0.021716343 0.014512407
0.0 0.0 0.0 0.020425 -0.02009442 -0.020372946 0.02070433 0.0
0.0 -0.015906123 0.0 -0.019588247 -0.017348867 0.020491427 0.0 -0.0073763
0.0 0.0 0.0 0.0 0.0 0.0 0.0 0.0
0.0 0.0 0.0 0.0 0.0 0.0 0.0 0.0
0.0 0.0 0.0 0.0 0.0 0.0 0.0 0.0
0.0 0.0 0.0 0.0 0.0 0.0 0.0 0.0
0.0 0.015241468 0.01484119 0.0 0.0 0.0 0.0 -0.015674666
00000000: f89e a9bc b6ab 083b 0000 0000 0000 0000
00000010: 0000 0000 aa69 9a3c 2bbc a43c 1fa1 a43c
00000020: aa38 923c 0000 0000 0000 0000 526f 8bbc
00000030: 0000 0000 b38a 9ebc f40e 9d3c 98a0 853c
00000040: 0000 0000 7a80 7e3c 0000 0000 0000 0000
00000050: 0000 0000 0000 0000 0000 0000 0000 0000
00000060: 0000 0000 0000 0000 0000 0000 0000 0000
00000070: 0000 0000 0000 0000 0000 0000 0000 0000
00000080: 0000 0000 0000 0000 0000 0000 0000 0000
00000090: 0000 0000 0000 0000 0000 0000 0000 0000
000000a0: 0000 0000 0000 0000 0000 0000 0000 0000
000000b0: 0000 0000 0000 0000 0000 0000 0000 0000
000000c0: 0000 0000 0000 0000 0000 0000 622b 5c3c
000000d0: 0831 743a 0000 0000 0000 0000 0000 0000
000000e0: 0000 0000 44df c73b 0112 eebb 099d abbc
000000f0: 0000 0000 0000 0000 0000 0000 3154 a93c
00000100: 87fb b7bc 575b a23c cd53 aabc 0000 0000
00000110: 0000 0000 3c6a 99bc 0000 0000 a7d9 9c3c
00000120: 60ad 9fbc 6ecd 963c 0000 0000 513b 86bc
00000130: 0000 0000 0000 0000 0000 0000 0000 0000
00000140: 0000 0000 0000 0000 0000 0000 0000 0000
00000150: 0000 0000 0000 0000 0000 0000 0000 0000
00000160: 0000 0000 0000 0000 0000 0000 0000 0000
00000170: 0000 0000 0000 0000 0000 0000 0000 0000
00000180: 0000 0000 0000 0000 0000 0000 0000 0000
00000190: 0000 0000 0000 0000 0000 0000 0000 0000
000001a0: 0000 0000 0000 0000 0000 0000 0000 0000
000001b0: 0000 0000 14e1 7bbc 146d 233c 0000 0000
000001c0: 0000 0000 0000 0000 0000 0000 b01f 82bc
000001d0: 4d52 b53c 2c0f 91bc 0000 0000 0000 0000
000001e0: 0000 0000 a96a ac3c eb8f aa3c 9f3e aa3c
000001f0: 8a62 a73c 0000 0000 0000 0000 58bd 9d3c
00000200: 0000 0000 5d26 a73c 8369 ef3b 1a7f 9e3c
00000210: 0000 0000 e717 94bb 0000 0000 0000 0000
00000220: 0000 0000 0000 0000 0000 0000 0000 0000
00000230: 0000 0000 0000 0000 0000 0000 0000 0000
00000240: 0000 0000 0000 0000 0000 0000 0000 0000
00000250: 0000 0000 0000 0000 0000 0000 0000 0000
00000260: 0000 0000 0000 0000 0000 0000 0000 0000
00000270: 0000 0000 0000 0000 0000 0000 0000 0000
00000280: 0000 0000 0000 0000 0000 0000 0000 0000
00000290: 0000 0000 0000 0000 0000 0000 2d1f 753c
000002a0: ca96 723c 0000 0000 0000 0000 0000 0000
000002b0: 0000 0000 5cfa 833c 79e6 b1bc 72c5 6d3c
000002c0: 0000 0000 0000 0000 0000 0000 5452 a73c
000002d0: 0e9d a4bc 2ae5 a6bc 219c a93c 0000 0000
000002e0: 0000 0000 8f4d 82bc 0000 0000 8877 a0bc
000002f0: 361f 8ebc a3dd a73c 0000 0000 e4b4 f1bb
00000300: 0000 0000 0000 0000 0000 0000 0000 0000
00000310: 0000 0000 0000 0000 0000 0000 0000 0000
00000320: 0000 0000 0000 0000 0000 0000 0000 0000
00000330: 0000 0000 0000 0000 0000 0000 0000 0000
00000340: 0000 0000 0000 0000 0000 0000 0000 0000
00000350: 0000 0000 0000 0000 0000 0000 0000 0000
00000360: 0000 0000 0000 0000 0000 0000 0000 0000
00000370: 0000 0000 0000 0000 0000 0000 0000 0000
00000380: 0000 0000 5ab7 793c 7628 733c 0000 0000
00000390: 0000 0000 0000 0000 0000 0000 2868 80bc

base_model.model.embedding.lora_embedding_B f4 [128, 4]
0.082474746 0.51752204 0.31481043 0.6333323 -0.07078055 0.37063438 -1.7038665 -1.6519767
-0.6863781 -0.52641076 -0.9723974 0.36663434 1.7444955 -0.21435118 0.4308137 1.6812104
0.2150819 0.056490265 -1.1739663 0.15933323 0.27210838 1.1038275 0.41665173 -0.028262448
0.71244276 -1.7830052 0.9496181 0.8753962 0.20831823 0.20787121 0.21863204 -0.8320847
-1.3947561 0.10940232 0.23264815 -0.067349225 -0.3421852 0.3551113 -3.2092657 1.3751004
-0.8781099 -0.43877587 -0.19175938 0.709795 -0.44316715 -1.0538054 1.7312293 0.21232414
2.2786605 0.7389446 -1.0379646 -1.6167018 1.4894612 -0.47277525 0.0025018873 0.49359238
-0.99116814 -0.83082294 -1.6792326 0.21329667 -2.613574 -0.7030573 -0.43145344 0.9460311
0.7720447 0.40667826 0.22607307 -0.9991128 -0.7476191 -0.7713782 -0.8975769 -1.0872567
1.5610884 -1.7656296 -0.7972521 -1.2848728 -0.10731073 1.4133399 -0.039602797 0.987023
-1.6625199 0.8266559 1.5511949 1.2262336 0.16015193 0.3564342 -0.0149147995 0.81079805
1.0247753 1.7745296 0.034889933 0.31577057 0.03552683 -1.1089201 1.7437055 -1.1184171
0.62949544 0.030381816 -1.091496 1.7600857 0.20575416 1.6930442 1.1341844 0.20136577
0.82294536 -0.87703633 0.5623894 -1.4556564 -0.59115434 -1.7817487 0.4456341 -0.75541866
-0.45085064 2.107284 1.1075807 -0.62640184 -0.09808386 -1.2430328 -0.45014402 0.77782345
0.7632319 0.20589982 -0.7460851 1.0460364 0.06887861 -0.47549772 -0.17247257 -0.11372479
-1.8007346 -0.42494696 0.8256816 0.7378784 0.17080697 -0.68905944 1.339519 0.38547805
-0.4973085 -0.07206435 0.049857114 -0.38679257 0.100083224 -0.7691957 1.5343494 1.0945609
0.5224717 0.56229264 -1.4677862 -0.47089553 -0.68773687 -0.9422563 -0.009761419 -0.5007629
1.3774574 -0.80782866 0.2226774 -0.58354884 1.8831697 -1.3158185 0.55660295 -0.24145702
-0.7157987 -0.17268902 1.4611677 2.6632373 -0.5002242 -0.65186477 -0.2903785 -2.1843812
0.15576285 -0.41347027 1.0668905 0.1870987 1.2123483 -0.0113467835 -2.2207832 0.81744105
-1.7330607 -0.074673705 1.1828758 0.036047496 1.1855633 1.2797476 -0.7148512 1.261502
-0.06813977 -0.79040176 0.510871 0.13484253 -0.85977626 0.8736723 -0.33268413 1.8048563
0.23427288 0.14465468 1.8359531 0.43830517 0.30317727 -0.94647384 0.25392836 -1.1147528
-0.15127996 0.027659146 0.05559358 -1.1103951 1.0510086 -0.99002063 -0.45558274 -0.19015865
-0.13104354 0.81087464 0.8617167 0.4366476 -0.8670335 -0.613937 0.685883 0.25582927
-0.174071 0.88050854 0.23895894 0.826105 0.66366625 0.11712135 -0.10970725 -1.4690281
0.77387154 1.1863515 0.7695614 -1.3103279 1.2556404 -0.72693133 1.3866827 -1.832985
0.43639666 0.902055 0.33261478 -0.9675231 0.064741775 -1.0894377 0.4922848 -0.970895
0.85378164 0.56471765 -2.396072 0.65628177 -1.643832 -1.0276157 -0.03276564 -0.07689934
-1.0203218 -1.1537302 0.55259454 -0.6195019 1.289687 0.33914813 0.7582392 0.3790267
00000000: 85e8 a83d 537c 043f d52e a13e 1122 223f
00000010: 65f5 90bd cac3 bd3e 4c18 dabf f973 d3bf
00000020: 7ab6 2fbf dbc2 06bf 09ef 78bf 7fb7 bb3e
00000030: a14b df3f e07e 5bbe 9d93 dc3e e731 d73f
00000040: 6e3e 5c3e 5662 673d 8744 96bf 4028 233e
00000050: ca51 8b3e 384a 8d3f 6053 d53e a686 e7bc
00000060: a662 363f 8439 e4bf 2c1a 733f f719 603f
00000070: 6051 553e 31dc 543e 14e1 5f3e 8103 55bf
00000080: 5e87 b2bf 530e e03d 513b 6e3e 64ee 89bd
00000090: e632 afbe 26d1 b53e 9c64 4dc0 4a03 b03f
000000a0: cfcb 60bf 3ba7 e0be 925c 44be 20b5 353f
000000b0: cee6 e2be 18e3 86bf ec98 dd3f 806b 593e
000000c0: 93d5 1140 792b 3d3f 06dc 84bf 16f0 cebf
000000d0: aaa6 be3f 990f f2be b4f6 233b 24b8 fc3e
000000e0: 32bd 7dbf d0b0 54bf 18f1 d6bf 716a 5a3e
000000f0: cc44 27c0 90fb 33bf 77e7 dcbe 182f 723f
00000100: b9a4 453f 2238 d03e b37f 673e dbc5 7fbf
00000110: f763 3fbf 0b79 45bf 9ac7 65bf 3a2b 8bbf
00000120: bfd1 c73f 2700 e2bf b718 4cbf b676 a4bf
00000130: bac5 dbbd 52e8 b43f 8b36 22bd 8aad 7c3f
00000140: 74cd d4bf b99f 533f 8e8d c63f 39f5 9c3f
00000150: defe 233e 8b7e b63e 345d 74bc 7690 4f3f
00000160: d62b 833f c923 e33f bfe8 0e3d aeac a13e
00000170: 9584 113d 18f1 8dbf be31 df3f 4b28 8fbf
00000180: 9d26 213f 49e3 f83c 24b6 8bbf 7d4a e13f
00000190: 38b1 523e acb5 d83f f42c 913f d432 4e3e
000001a0: 8cac 523f 7485 60bf c0f8 0f3f f352 babf
000001b0: e455 17bf 5710 e4bf 272a e43e 1e63 41bf
000001c0: e5d5 e6be bedd 0640 34c5 8d3f df5b 20bf
000001d0: 31e0 c8bd b31b 9fbf 4779 e6be 701f 473f
000001e0: 2a63 433f 67d7 523e 6fff 3ebf 85e4 853f
000001f0: 3b10 8d3d 7074 f3be a69c 30be 8be8 e8bd
00000200: 797e e6bf a692 d9be df5f 533f 99e5 3c3f
00000210: 06e8 2e3e 3366 30bf 5c75 ab3f 615d c53e
00000220: 389f febe 7996 93bd f936 4c3d ad09 c6be
00000230: 6ff8 cc3d 02ea 44bf 9065 c43f 921a 8c3f
00000240: b5c0 053f 69f2 0f3f 6be0 bbbf 3819 f1be
00000250: 860f 30bf b537 71bf 5cee 1fbc ff31 00bf
00000260: 8650 b03f dccd 4ebf 8b05 643e 7563 15bf
00000270: b40b f13f be6c a8bf 887d 0e3f 8240 77be
00000280: 953e 37bf 64d5 30be 8b07 bb3f 7b72 2a40
00000290: b10e 00bf 9ce0 26bf 7eac 94be e7cc 0bc0
000002a0: 4c80 1f3e 60b2 d3be de8f 883f cd96 3f3e
000002b0: 3b2e 9b3f dce7 39bc 5021 0ec0 d143 513f
000002c0: efd4 ddbf 87ee 98bd 7968 973f 8aa6 133d
000002d0: 8ac0 973f c5ce a33f 7d00 37bf e678 a13f
000002e0: dd8c 8bbd c557 4abf 71c8 023f 2914 0a3e
000002f0: 4c1a 5cbf fda8 5f3f 9355 aabe 8805 e73f
00000300: 3be5 6f3e 5b20 143e 8300 eb3f 8969 e03e
00000310: 0d3a 9b3e 1c4c 72bf e602 823e 38b0 8ebf
00000320: 22e9 1abe 6f95 e23c 18b6 633d 6d21 8ebf
00000330: 7387 863f fe71 7dbf 2442 e9be f3b8 42be
00000340: 4730 06be 7b95 4f3f 7799 5c3f 4690 df3e
00000350: e8f5 5dbf fa2a 1dbf 0796 2f3f 0efc 823e
00000360: ab3f 32be 0269 613f a7b1 743e 9e7b 533f
00000370: 08e6 293f 51dd ef3d 32ae e0bd 1d09 bcbf
00000380: 721c 463f 5eda 973f fa01 453f d3b8 a7bf
00000390: d3b8 a03f 2c18 3abf d27e b13f 419f eabf
000003a0: 626f df3e 14ed 663f 7c4c aa3e 98af 77bf
000003b0: 5697 843d b272 8bbf c10c fc3e 938c 78bf
000003c0: 6f91 5a3f 5691 103f 3e59 19c0 1502 283f
000003d0: 1669 d2bf e988 83bf 4435 06bd 677d 9dbd
000003e0: e899 82bf 6ead 93bf d676 0d3f ad97 1ebf
000003f0: 7714 a53f d3a4 ad3e f71b 423f ca0f c23e

base_model.model.output.lora_A.weight f4 [4, 128]
0.038574938 0.027152946 -0.11091046 0.07560515 0.10866317 -0.030363958 -0.086012125 -0.011228741
0.052220065 0.027072629 -0.042528532 0.0140379155 0.07382464 0.10424204 0.0697975 -0.056777816
-0.054353446 -0.011848744 -0.03913899 0.012294469 -0.016106118 -0.02366451 -0.036420297 -0.05768791
0.039247673 -0.030668838 0.04949471 0.07425549 0.022929078 -0.0342762 0.0063174074 -0.0015934817
-0.09522644 0.05617778 -0.0009430145 0.031724013 0.07835957 0.060388576 0.1063742 0.057854343
-0.007642248 -0.104034774 -0.109532386 0.02853973 -0.09818625 -0.09657922 -0.08428257 -0.030145833
-0.065604985 0.10926034 -0.084818326 0.088247985 0.105367765 0.05672897 -0.0741025 0.078019045
-0.078521185 -0.04303486 0.040205866 0.034322046 0.049628306 0.07027678 -0.023851173 -0.08901031
0.00063249527 0.057752643 -0.06386944 -0.1011012 0.0073493323 -0.013430279 -0.09457016 -0.08703578
0.021034466 0.09447463 -0.04064194 0.0014579535 -0.039508663 0.022297692 0.029210677 0.01969741
-0.027325587 -0.02017116 0.026371412 -0.057127986 -0.022288911 -0.013279463 -0.016604617 -0.055771068
-0.075762264 0.03748887 0.057676893 -0.049338527 0.008270723 0.058159456 -0.06298234 0.023321332
0.07169468 -0.097393416 0.040871456 0.06378682 0.05246801 0.081830025 0.0117595 0.09016458
-0.02731329 -0.050063718 0.054921806 0.05918828 -0.0051833824 0.044502974 -0.046677534 0.04071226
-0.08694316 0.035423197 -0.028979521 -0.034166172 -0.040902812 -0.056735173 -0.10563248 0.05343741
0.059283443 0.07805477 0.05759922 -0.02185604 0.07913487 -0.066650674 -0.05073829 -0.010758295
0.008880098 -0.05496793 0.09006764 0.017516525 0.034187473 0.05470642 0.034231387 0.028969133
0.004431926 -0.08209813 -0.09450574 -0.009140219 0.06059034 0.03652123 -0.046740323 0.007581671
-0.023650045 0.048540622 -0.016334405 0.05155248 -0.028318712 0.008676277 -0.021910734 -0.026103213
0.09908958 -0.00180376 0.061728247 -0.0091778105 0.020911144 -0.021379024 -0.01862775 -0.015262676
0.05956496 0.098986775 -0.07288537 -0.038386624 -0.0440142 -0.026551174 0.045494407 -0.008851827
0.07810957 0.071973495 0.014881254 0.013790324 -0.031904798 0.090403095 0.09556634 -0.038252782
0.01587143 0.0562795 0.09429718 -0.008949384 -0.076368384 -0.032151975 0.096631944 0.057256628
-0.013759224 -0.042972412 0.08521864 -0.025662249 -0.04133127 0.038154576 -0.06816089 -0.022787709
-0.019132571 -0.023228535 0.027949885 0.0794088 -0.10782919 0.04415351 0.06739388 -0.034331236
-0.068164214 0.0053244517 0.033094764 -0.03148203 0.011321182 -0.014761766 0.0716398 -0.07916705
0.009184644 -0.08920222 0.027898781 -0.041828196 -0.031404797 -0.042482432 -0.011963365 0.0015275138
0.0071632206 0.061054245 0.0790459 0.05948178 0.09105832 0.0015361535 0.006969101 0.0031153467
-0.0033858365 -0.05597745 0.049130388 -0.06751955 0.049634017 -0.08849054 -0.032435153 -0.09669574
-0.095198944 0.030859701 -0.040301554 -0.059029143 -0.03466667 -0.005014325 -0.041075666 -0.099008314
0.085770965 0.069725364 0.011044439 0.03837428 -0.052906953 0.04171894 -0.005235361 -0.017718934
0.0012072177 -0.005931624 0.03587345 0.023031866 -0.054134097 -0.06517781 -0.0142623 0.04088319
00000000: c100 1e3d db6f de3c 0625 e3bd dfd6 9a3d
00000010: cc8a de3d d6bd f8bc 2027 b0bd c1f8 37bc
00000020: b5e4 553d 6bc7 dd3c 6632 2ebd 49ff 653c
00000030: 5f31 973d da7c d53d fef1 8e3d db8f 68bd
00000040: b8a1 5ebd 3c21 42bc 3550 20bd be6e 493c
00000050: faf0 83bc 13dc c1bc 732d 15bd 284a 6cbd
00000060: 2bc2 203d 373d fbbc f7ba 4a3d 4313 983d
00000070: c3d5 bb3c 3365 0cbd 4102 cf3b 60dc d0ba
00000080: 1406 c3bd ac1a 663d a234 77ba 0af1 013d
00000090: fb7a a03d 035a 773d b7da d93d adf8 6c3d
000000a0: d36b fabb 2f10 d5bd 8452 e0bd 27cc e93c
000000b0: df15 c9bd 53cb c5bd 579c acbd 65f4 f6bc
000000c0: e85b 86bd e3c3 df3d 3bb5 adbd 5cbb b43d
000000d0: 0ecb d73d a35c 683d 0dc3 97bd 73c8 9f3d
000000e0: b7cf a0bd 5245 30bd e8ae 243d 4695 0c3d
000000f0: 0d47 4b3d 46ed 8f3d 8963 c3bc 0a4b b6bd
00000100: 0ace 253a 098e 6c3d fbcd 82bd 250e cfbd
00000110: abd2 f03b ac0a 5cbc 00ae c1bd d13f b2bd
00000120: 7950 ac3c ea7b c13d 2a78 26bd cd18 bf3a
00000130: d6d3 21bd a6a9 b63c 3b4b ef3c 765c a13c
00000140: e9d9 dfbc fd3d a5bc dc08 d83c 09ff 69bd
00000150: 3c97 b6bc 1b92 59bc 6806 88bc 3470 64bd
00000160: 3f29 9bbd ee8d 193d 9b3e 6c3d 3217 4abd
00000170: ed81 073c 9c38 6e3d e3fc 80bd 610c bf3c
00000180: a9d4 923d 3376 c7bd d468 273d aaa2 823d
00000190: b2e8 563d 8096 a73d ebaa 403c 35a8 b83d
000001a0: 1fc0 dfbc 9d0f 4dbd b0f5 603d 696f 723d
000001b0: 5dd9 a9bb c048 363d f130 3fbd e6c1 263d
000001c0: 410f b2bd ea17 113d 7666 edbc d4f1 0bbd
000001d0: b589 27bd 2463 68bd d755 d8bd 30e1 5a3d
000001e0: 32d3 723d 2edb 9f3d 29ed 6b3d 700b b3bc
000001f0: 7611 a23d 2680 88bd f4d2 4fbd 8f43 30bc
00000200: d57d 113c 0d26 61bd 6275 b83d d17e 8f3c
00000210: 2a08 0c3d d713 603d 3636 0c3d ad50 ed3c
00000220: b139 913b 1023 a8bd 3a8c c1bd dbc0 15bc
00000230: 942d 783d 4997 153d c872 3fbd aa6f f83b
00000240: bdbd c1bc 88d2 463d bbcf 85bc b128 533d
00000250: a5fc e7bc f126 0e3c 247e b3bc 68d6 d5bc
00000260: 7aef ca3d 246c ecba c2d6 7c3d 875e 16bc
00000270: d94d ab3c 1023 afbc 3999 98bc 4e10 7abc
00000280: 63fa 733d 94b9 ca3d ed44 95bd 4b3b 1dbd
00000290: 3c48 34bd d981 d9bc 5858 3a3d 4107 11bc
000002a0: e9f7 9f3d d766 933d 81d0 733c d0f0 613c
000002b0: 9bae 02bd 4225 b93d 49b8 c33d f3ae 1cbd
000002c0: cd04 823c 5585 663d e11e c13d 70a0 12bc
000002d0: 0767 9cbd cab1 03bd f8e6 c53d ed85 6a3d
000002e0: 5e6e 61bc d703 30bd 1c87 ae3d a339 d2bc
000002f0: fa4a 29bd f947 1c3d f097 8bbd 4aad babc
00000300: e9bb 9cbc c549 bebc 28f7 e43c 15a1 a23d
00000310: 8dd5 dcbd 50da 343d cd05 8a3d e99e 0cbd
00000320: ae99 8bbd bd78 ae3b 608e 073d 4df3 00bd
00000330: 7b7c 393c 56db 71bc e3b7 923d 5622 a2bd
00000340: 307b 163c a7af b6bd fc8b e43c 0b54 2bbd
00000350: 51a2 00bd 0f02 2ebd fd01 44bc dc36 c83a
00000360: 73b9 ea3b 0414 7a3d d1e2 a13d 2ba3 733d
00000370: c97c ba3d c258 c93a 0e5d e43b d82a 4c3b
00000380: e9e4 5dbb 9c48 65bd f23c 493d b147 8abd
00000390: 0a4d 4b3d 873a b5bd b9da 04bd 6b08 c6bd
000003a0: aaf7 c2bd 7ccd fc3c 3e13 25bd 8bc8 71bd
000003b0: a3fe 0dbd 354f a4bb f53e 28bd dfc4 cabd
000003c0: b0a8 af3d 2ccc 8e3d bcf3 343c 592e 1d3d
000003d0: f6b4 58bd 7be1 2a3d 648d abbb 4c27 91bc
000003e0: 813b 9e3a 125e c2bb 0af0 123d 53ad bc3c
000003f0: b7bb 5dbd f27b 85bd 6cac 69bc 2275 273d

base_model.model.output.lora_B.weight f4 [58, 4]
-0.023658788 0.023223054 -0.023454364 -0.02409906 -0.023181193 0.023703516 -0.02201305 -0.024603836
0.023451537 -0.024780761 0.022593508 0.024731923 0.023521895 -0.024971368 0.02315079 0.024221744
0.023510601 -0.024717767 0.0226552 0.024906836 -0.015794165 0.0063607018 0.0028372323 0.024084097
0.022774365 -0.023210665 0.021983685 0.020954503 0.02331869 -0.024974197 0.022923555 0.024729699
0.016122727 -0.024275543 0.024066092 -0.0050303885 0.023414114 -0.024950186 0.022914108 0.02463485
0.023754839 -0.025037253 0.023046494 0.024907295 0.018489432 -0.023181595 0.02245607 0.0020821826
0.023503006 -0.025059678 0.023048948 0.024556508 -0.002876385 -0.023473324 0.00088190276 -0.0030202805
0.004217807 -0.017107066 -0.020474508 0.003729348 -0.007184258 -0.012120907 -0.016200064 -0.0126733575
0.023493836 -0.025126105 0.02308087 0.024440384 0.022812814 -0.024466265 0.022756197 0.0244335
0.023702495 -0.02474488 0.02312019 0.024711117 0.02346983 -0.024689732 0.02277433 0.02493395
0.02362505 -0.024989551 0.023061475 0.024783334 0.023654351 -0.025105175 0.023014182 0.024720117
0.023560999 -0.02511169 0.023022417 0.024471393 0.023649557 -0.025139343 0.02320252 0.024580864
0.023730207 -0.025171842 0.023458451 0.024447339 0.023383807 -0.02441451 0.022652144 0.02503866
0.02374394 -0.025199989 0.023257751 0.024673207 0.023689047 -0.0252087 0.02324202 0.024643455
0.02357039 -0.025091385 0.022978704 0.024661347 0.02351313 -0.025172716 0.023176158 0.024371283
0.023512872 -0.024360068 0.022557892 0.025092829 0.023629434 -0.024899447 0.02287508 0.024980621
0.023539905 -0.024748081 0.023147577 0.024322089 0.023595706 -0.02474321 0.022972973 0.02512388
0.023529159 -0.024842624 0.022848988 0.02490518 0.023417652 -0.024394372 0.022477822 0.024976984
0.023394126 -0.025029933 0.02315486 0.024110354 0.023524385 -0.02481479 0.02282077 0.024809157
0.023756087 -0.025263831 0.023324616 0.024697788 0.023675151 -0.024971414 0.023007717 0.024886677
0.023733413 -0.025081871 0.023420298 0.024404833 0.023500057 -0.024861706 0.022761285 0.024787579
0.023640342 -0.025018808 0.023137351 0.024604563 0.023525003 -0.024935944 0.022985145 0.024628708
0.023371177 -0.02488703 0.022704244 0.02468145 0.023684902 -0.025155855 0.023226786 0.02447114
0.023572646 -0.025068406 0.02320095 0.024299227 0.02366563 -0.02522555 0.02334367 0.024425488
0.023677316 -0.025129147 0.02320355 0.024574932 0.023508312 -0.025125684 0.023174169 0.02431443
0.023587313 -0.024625735 0.022747224 0.025025476 0.017494524 0.00438506 0.023104152 0.021054076
0.016951937 -0.024436343 0.02283795 0.018984878 0.023365509 -0.025140138 0.022921678 0.024466736
0.023658104 -0.025101783 0.023213787 0.02463565 0.02370371 -0.025056008 0.023083966 0.02467977
0.02362905 -0.025146825 0.022864025 0.024558827 0.012344788 0.0052195755 0.023365816 0.023811944
00000000: 13d0 c1bc 463e be3c 5e23 c0bc 646b c5bc
00000010: 7ce6 bdbc e02d c23c b654 b4bc fc8d c9bc
00000020: 701d c03c 0601 cbbc 0516 b93c 9a9a ca3c
00000030: fdb0 c03c c190 ccbc baa6 bd3c ae6c c63c
00000040: 4e99 c03c ea7c cabc 6697 b93c 6c09 cc3c
00000050: c462 81bc 6f6d d03b dcf0 393b 034c c53c
00000060: 4e91 ba3c 4b24 bebc 2117 b43c c7a8 ab3c
00000070: d606 bf3c b096 ccbc 2eca bb3c f095 ca3c
00000080: cf13 843c 81dd c6bc 4126 c53c f5d5 a4bb
00000090: f5ce bf3c 5564 ccbc 5eb6 bb3c 06cf c93c
000000a0: 8299 c23c ed1a cdbc 00cc bc3c 620a cc3c
000000b0: 2677 973c 54e7 bdbc cbf5 b73c 3a75 083b
000000c0: 6089 c03c f449 cdbc 26d1 bc3c bb2a c93c
000000d0: bc81 3cbb 214b c0bc 7e2f 673a e6ef 45bb
000000e0: 8835 8a3b 1e24 8cbc 28ba a7bc 1468 743b
000000f0: ed69 ebbb c596 46bc ffb5 84bc eaa3 4fbc
00000100: 2576 c03c 43d5 cdbc 1814 bd3c 3337 c83c
00000110: f0e1 ba3c 7a6d c8bc 346b ba3c c328 c83c
00000120: bc2b c23c c6b5 cabc 8d66 bd3c f86e ca3c
00000130: cd43 c03c 1f42 cabc 3b91 ba3c 4842 cc3c
00000140: 5289 c13c e3b6 ccbc 6beb bc3c 6b06 cb3c
00000150: c5c6 c13c 5ea9 cdbc 3d88 bc3c d881 ca3c
00000160: ff02 c13c 08b7 cdbc 8299 bc3c 3b78 c83c
00000170: b7bc c13c 06f1 cdbc 3613 be3c cf5d c93c
00000180: da65 c23c 2e35 cebc f02b c03c c945 c83c
00000190: 668f bf3c f000 c8bc fd90 b93c e01d cd3c
000001a0: a782 c23c 3570 cebc 0a87 be3c 771f ca3c
000001b0: 880f c23c 7a82 cebc 0c66 be3c 12e1 c93c
000001c0: b116 c13c 738c cdbc d63d bc3c 9806 ca3c
000001d0: 9c9e c03c 0337 cebc eddb bd3c 49a6 c73c
000001e0: 119e c03c c48e c7bc 54cb b83c 7a8f cd3c
000001f0: 8492 c13c edf9 cbbc 8564 bb3c 29a4 cc3c
00000200: c2d6 c03c 7dbc cabc fd9f bd3c 1e3f c73c
00000210: c84b c13c 46b2 cabc d131 bc3c 98d0 cd3c
00000220: 39c0 c03c c282 cbbc cd2d bb3c f305 cc3c
00000230: 60d6 bf3c b5d6 c7bc 6923 b83c 889c cc3c
00000240: 0aa5 bf3c 930b cdbc 43af bd3c 1483 c53c
00000250: 36b6 c03c 6348 cbbc a0f2 ba3c 933c cb3c
00000260: 209c c23c 18f6 cebc 4413 bf3c 0453 ca3c
00000270: 64f2 c13c da90 ccbc ae7a bc3c 25df cb3c
00000280: 936c c23c 7f78 cdbc eddb bf3c a5ec c73c
00000290: 3183 c03c c7aa cbbc e075 ba3c 520f cb3c
000002a0: 64a9 c13c 3ef4 ccbc 8b8a bd3c 828f c93c
000002b0: 82b7 c03c 7746 ccbc 584b bc3c 25c2 c93c
000002c0: e974 bf3c e2df cbbc 40fe b93c c130 ca3c
000002d0: d706 c23c a713 cebc 1a46 be3c b377 c83c
000002e0: 6c1b c13c 425c cdbc eb0f be3c 2c0f c73c
000002f0: 6cde c13c d0a5 cebc 393b bf3c f617 c83c
00000300: eef6 c13c a4db cdbc 5f15 be3c 5e51 c93c
00000310: 8194 c03c 61d4 cdbc c1d7 bd3c 0e2f c73c
00000320: 2e3a c13c e9bb c9bc 6358 ba3c 3a02 cd3c
00000330: ad50 8f3c 8db0 8f3b eb44 bd3c 9979 ac3c
00000340: cade 8a3c ba2e c8bc a716 bb3c 2d86 9b3c
00000350: 0669 bf3c b1f2 cdbc 3ec6 bb3c 776e c83c
00000360: a4ce c13c 41a2 cdbc d72a be3c b4d0 c93c
00000370: 482e c23c 4242 cdbc 961a bd3c 3b2d ca3c
00000380: b691 c13c b700 cebc 564d bb3c 982f c93c
00000390: cb41 4a3c f908 ab3b ab69 bf3c 4411 c33c
