stream-dev-conda-py/ollam/LoRA_pyspark/models/fully_offline_lora/checkpoint-20/adapter_model.safetensors (safetensors, 6400 bytes, 4 tensors)

base_model.model.embedding.lora_embedding_A f4 [4, 58]
0	0xbc7f6b9a	-0.015589619
1	0x3acb1c2b	0.0015496066
2	0x00000000	0.0
3	0x00000000	0.0
4	0x00000000	0.0
5	0x3c7611d6	0.015018901
6	0x3c7fd3a8	0.015614428
7	0x3c805b4a	0.01566853
8	0x3c67969f	0.014135032
9	0x00000000	0.0
10	0x00000000	0.0
11	0xbc5bb9d7	-0.013411007
12	0x00000000	0.0
13	0xbc73b06a	-0.014873603
14	0x3c79018c	0.015198123
15	0x3c586e1e	0.013209848
16	0x00000000	0.0
17	0x3c49fee0	0.012328833
18	0x00000000	0.0
19	0x00000000	0.0
20	0x00000000	0.0
21	0x00000000	0.0
22	0x00000000	0.0
23	0x00000000	0.0
24	0x00000000	0.0
25	0x00000000	0.0
26	0x00000000	0.0
27	0x00000000	0.0
28	0x00000000	0.0
29	0x00000000	0.0
30	0x00000000	0.0
31	0x00000000	0.0
32	0x00000000	0.0
33	0x00000000	0.0
34	0x00000000	0.0
35	0x00000000	0.0
36	0x00000000	0.0
37	0x00000000	0.0
38	0x00000000	0.0
39	0x00000000	0.0
40	0x00000000	0.0
41	0x00000000	0.0
42	0x00000000	0.0
43	0x00000000	0.0
44	0x00000000	0.0
45	0x00000000	0.0
46	0x00000000	0.0
47	0x00000000	0.0
48	0x00000000	0.0
49	0x00000000	0.0
50	0x00000000	0.0
51	0x3c2d83df	0.010590523
52	0xba35f7bd	-0.0006941518
53	0x00000000	0.0
54	0x00000000	0.0
55	0x00000000	0.0
56	0x00000000	0.0
57	0x3b8e73bb	0.0043472922
58	0xbc098e24	-0.008395705
59	0xbc810a2d	-0.015751923
60	0x00000000	0.0
61	0x00000000	0.0
62	0x00000000	0.0
63	0x3c83064e	0.015994217
64	0xbc885ff1	-0.01664731
65	0x3c7ef57b	0.015561457
66	0xbc8321e0	-0.016007364
67	0x00000000	0.0
68	0x00000000	0.0
69	0xbc6a5f1a	-0.014304901
70	0x00000000	0.0
71	0x3c76ecb7	0.015071086
72	0xbc7bffac	-0.015380781
73	0x3c703b6a	0.014662603
74	0x00000000	0.0
75	0xbc4b1c77	-0.012396923
76	0x00000000	0.0
77	0x00000000	0.0
78	0x00000000	0.0
79	0x00000000	0.0
80	0x00000000	0.0
81	0x00000000	0.0
82	0x00000000	0.0
83	0x00000000	0.0
84	0x00000000	0.0
85	0x00000000	0.0
86	0x00000000	0.0
87	0x00000000	0.0
88	0x00000000	0.0
89	0x00000000	0.0
90	0x00000000	0.0
91	0x00000000	0.0
92	0x00000000	0.0
93	0x00000000	0.0
94	0x00000000	0.0
95	0x00000000	0.0
96	0x00000000	0.0
97	0x00000000	0.0
98	0x00000000	0.0
99	0x00000000	0.0
100	0x00000000	0.0
101	0x00000000	0.0
102	0x00000000	0.0
103	0x00000000	0.0
104	0x00000000	0.0
105	0x00000000	0.0
106	0x00000000	0.0
107	0x00000000	0.0
108	0x00000000	0.0
109	0xbc429dde	-0.011878459
110	0x3c106f6c	0.008815628
111	0x00000000	0.0
112	0x00000000	0.0
113	0x00000000	0.0
114	0x00000000	0.0
115	0xbc497ec2	-0.012298288
116	0x3c875523	0.016520089
117	0xbc73c1ad	-0.014877719
118	0x00000000	0.0
119	0x00000000	0.0
120	0x00000000	0.0
121	0x3c8386e7	0.016055537
122	0x3c8389af	0.016056864
123	0x3c824a97	0.015904708
124	0x3c807a1b	0.015683224
125	0x00000000	0.0
126	0x00000000	0.0
127	0x3c6e2591	0.014535324
128	0x00000000	0.0
129	0x3c808f5d	0.015693361
130	0x3b3d0289	0.0028840622
131	0x3c6b076a	0.014345029
132	0x00000000	0.0
133	0xbb81b99f	-0.0039588953
134	0x00000000	0.0
135	0x00000000	0.0
136	0x00000000	0.0
137	0x00000000	0.0
138	0x00000000	0.0
139	0x00000000	0.0
140	0x00000000	0.0
141	0x00000000	0.0
142	0x00000000	0.0
143	0x00000000	0.0
144	0x00000000	0.0
145	0x00000000	0.0
146	0x00000000	0.0
147	0x00000000	0.0
148	0x00000000	0.0
149	0x00000000	0.0
150	0x00000000	0.0
151	0x00000000	0.0
152	0x00000000	0.0
153	0x00000000	0.0
154	0x00000000	0.0
155	0x00000000	0.0
156	0x00000000	0.0
157	0x00000000	0.0
158	0x00000000	0.0
159	0x00000000	0.0
160	0x00000000	0.0
161	0x00000000	0.0
162	0x00000000	0.0
163	0x00000000	0.0
164	0x00000000	0.0
165	0x00000000	0.0
166	0x00000000	0.0
167	0x3c3ded28	0.011592187
168	0x3c395750	0.011312321
169	0x00000000	0.0
170	0x00000000	0.0
171	0x00000000	0.0
172	0x00000000	0.0
173	0x3c4cf36e	0.01250921
174	0xbc875e08	-0.01652433
175	0x3c161628	0.009160556
176	0x00000000	0.0
177	0x00000000	0.0
178	0x00000000	0.0
179	0x3c815eec	0.015792333
180	0xbc80c9c4	-0.01572121
181	0xbc81ff07	-0.015868677
182	0x3c7d01ea	0.015442351
183	0x00000000	0.0
184	0x00000000	0.0
185	0xbc521433	-0.012822199
186	0x00000000	0.0
187	0xbc7d3731	-0.015455053
188	0xbc6e696e	-0.014551504
189	0x3c813fbd	0.015777463
190	0x00000000	0.0
191	0xbb9f3dd9	-0.0048596677
192	0x00000000	0.0
193	0x00000000	0.0
194	0x00000000	0.0
195	0x00000000	0.0
196	0x00000000	0.0
197	0x00000000	0.0
198	0x00000000	0.0
199	0x00000000	0.0
200	0x00000000	0.0
201	0x00000000	0.0
202	0x00000000	0.0
203	0x00000000	0.0
204	0x00000000	0.0
205	0x00000000	0.0
206	0x00000000	0.0
207	0x00000000	0.0
208	0x00000000	0.0
209	0x00000000	0.0
210	0x00000000	0.0
211	0x00000000	0.0
212	0x00000000	0.0
213	0x00000000	0.0
214	0x00000000	0.0
215	0x00000000	0.0
216	0x00000000	0.0
217	0x00000000	0.0
218	0x00000000	0.0
219	0x00000000	0.0
220	0x00000000	0.0
221	0x00000000	0.0
222	0x00000000	0.0
223	0x00000000	0.0
224	0x00000000	0.0
225	0x3c414db7	0.011798314
226	0x3c3de845	0.011591022
227	0x00000000	0.0
228	0x00000000	0.0
229	0x00000000	0.0
230	0x00000000	0.0
231	0xbc49d4cf	-0.012318804

base_model.model.embedding.lora_embedding_B f4 [128, 4]
0	0x3db7b8e3	0.08970811
1	0x3f02df36	0.5112184
2	0x3e9dc67d	0.30815497
3	0x3f23fa20	0.64053535
4	0xbd82ce3a	-0.06386991
5	0x3ebad0db	0.3648747
6	0xbfdafca8	-1.7108355
7	0xbfd290d6	-1.645045
8	0xbf2de627	-0.6792931
9	0xbf04e92c	-0.5191829
10	0xbf7ab39e	-0.97930324
11	0x3ebf284a	0.37335426
12	0x3fde64f9	1.7374564
13	0xbe5ae0ff	-0.21374892
14	0x3edb7fdb	0.42870983
15	0x3fd64f63	1.6742977
16	0x3e620e5b	0.22075789
17	0x3d7b1f97	0.061309423
18	0xbf957ce4	-1.1678739
19	0x3e1ee45c	0.155168
20	0x3e88064c	0.26567304
21	0x3f8cd34f	1.1001986
22	0x3ed9072e	0.4238829
23	0xbd10c781	-0.03534651
24	0x3f384719	0.71983486
25	0xbfe35b7f	-1.7762297
26	0x3f713d71	0.9423438
27	0x3f61b163	0.88161296
28	0x3e5afa9c	0.21384662
29	0x3e5c160a	0.21492782
30	0x3e64ca77	0.22342859
31	0xbf54cc79	-0.831245
32	0xbfb3742b	-1.4019827
33	0x3dd4fa18	0.10399264
34	0x3e75aa4a	0.23990741
35	0xbd98d91e	-0.07463287
36	0xbeac45f6	-0.33647126
37	0x3eb6e638	0.35722518
38	0xc04dd138	-3.2158947
39	0x3fb0bbfa	1.3807366
40	0xbf5fc4a6	-0.87409437
41	0xbeded6b3	-0.43523178
42	0xbe4bb5e4	-0.19893605
43	0x3f3781e3	0.71682566
44	0xbee681c0	-0.45020866
45	0xbf86220c	-1.047914
46	0x3fde8064	1.7382932
47	0x3e522854	0.20523196
48	0x4011613d	2.27156
49	0x3f3b6deb	0.73214597
50	0xbf83ee84	-1.0307164
51	0xbfcfd8f8	-1.6238089
52	0x3fbdb2c7	1.4820184
53	0xbeef870a	-0.46782714
54	0x3c1ef2ad	0.009701413
55	0x3ef8e09b	0.4860886
56	0xbf7fa15c	-0.9985559
57	0xbf52dce8	-0.82368326
58	0xbfd5fc6d	-1.6717659
59	0x3e529799	0.20565642
60	0xc027b19e	-2.620216
61	0xbf358208	-0.70901537
62	0xbed968fb	-0.42462906
63	0x3f707620	0.93930244
64	0x3f4532f7	0.7703089
65	0x3ed3eb59	0.41390494
66	0x3e6da210	0.23206353
67	0xbf80981f	-1.0046424
68	0xbf3d8210	-0.74026585
69	0xbf44093f	-0.7657661
70	0xbf67ae79	-0.905006
71	0xbf8a3818	-1.0798368
72	0x3fc6edb1	1.5541288
73	0xbfe2a791	-1.7707387
74	0xbf4cd121	-0.80006605
75	0xbfa5458f	-1.2911853
76	0xbde96ffb	-0.11398312
77	0x3fb404ab	1.4063925
78	0xbd04f374	-0.032458737
79	0x3f7ae775	0.98009425
80	0xbfd423bd	-1.6573406
81	0x3f51dc58	0.8197684
82	0x3fc5a2e5	1.5440336
83	0x3f9de9ea	1.233701
84	0x3e24611c	0.1605267
85	0x3eb35826	0.3502819
86	0xbcb312a9	-0.021859484
87	0x3f51594e	0.81776893
88	0x3f824617	1.017764
89	0x3fe2404a	1.767587
90	0x3d2abc1c	0.0416833
91	0x3e9e2fd8	0.30895877
92	0x3cecaadf	0.028890071
93	0xbf8d46f6	-1.103728
94	0x3fe02241	1.7510453
95	0xbf902105	-1.1260077
96	0x3f1f4f52	0.6223041
97	0x3cc7f662	0.024409477
98	0xbf8ac6b8	-1.0841894
99	0x3fe05c43	1.7528156
100	0x3e5a3e29	0.21312775
101	0x3fd8d19b	1.6938967
102	0x3f903df0	1.1268902
103	0x3e55b3f7	0.20869432
104	0x3f50be87	0.8154072
105	0xbf5efb14	-0.87101865
106	0x3f11cceb	0.56953305
107	0xbfbb44f8	-1.4630423
108	0xbf157c56	-0.58392847
109	0xbfe363cd	-1.7764832
110	0x3ee07948	0.4384253
111	0xbf3f889a	-0.7481781
112	0xbee3100e	-0.44348186
113	0x400677d5	2.101064
114	0x3f8cd912	1.1003745
115	0xbf1e7c04	-0.6190798
116	0xbdcbb8ab	-0.09947332
117	0xbf9ff7a5	-1.249745
118	0xbee9c1ee	-0.4565577
119	0x3f486f10	0.7829447
120	0x3f45255e	0.7701014
121	0x3e4b7ff4	0.19873029
122	0xbf40dd3c	-0.75337577
123	0x3f86dcfc	1.0536189
124	0x3d9bb718	0.07603282
125	0xbeefd014	-0.4683844
126	0xbe37e5a4	-0.17958695
127	0xbdda3d75	-0.10656253
128	0xbfe76d9e	-1.8080328
129	0xbed6d793	-0.41961345
130	0x3f553b1d	0.83293325
131	0x3f3b04cb	0.7305419
132	0x3e27b6ca	0.16378322
133	0xbf2e8e61	-0.68186
134	0x3fac635e	1.3467824
135	0x3ec19211	0.37806752
136	0xbefae125	-0.48999897
137	0xbda37988	-0.079821646
138	0x3d2efab0	0.042719543
139	0xbec246f4	-0.37944758
140	0x3dbe3ab3	0.0928854
141	0xbf4677ab	-0.7752635
142	0x3fc554ab	1.5416464
143	0x3f8b2ded	1.087339
144	0x3f03dddb	0.515104
145	0x3f0dfdd4	0.55465436
146	0xbfbaf88e	-1.4607103
147	0xbef47c08	-0.47750878
148	0xbf2e4c08	-0.68084764
149	0xbf6f6c2e	-0.93524444
150	0xbc4b5422	-0.012410196
151	0xbefcf390	-0.49404573
152	0x3faf6307	1.3702096
153	0xbf5073d8	-0.81426764
154	0x3e69abe0	0.22819471
155	0xbf16ebf4	-0.58953786
156	0x3ff01f98	1.8759642
157	0xbfa8fcc4	-1.3202138
158	0x3f106040	0.56396866
159	0xbe7ec4db	-0.24879782
160	0xbf356d42	-0.7086984
161	0xbe2acf11	-0.16680552
162	0x3fba1371	1.4537183
163	0x402ae906	2.6704726
164	0xbf0010c9	-0.5002561
165	0xbf289d49	-0.65865
166	0xbe980081	-0.29687884
167	0xc00b6350	-2.1779366
168	0x3e259cf8	0.1617316
169	0xbecff99d	-0.40620127
170	0x3f891821	1.0710489
171	0x3e43e6e0	0.1913104
172	0x3f9a3733	1.2048095
173	0xbb861e8c	-0.004092997
174	0xc00da9cd	-2.2134888
175	0x3f4f5797	0.80993026
176	0xbfdce9b1	-1.7258817
177	0xbd8b646c	-0.06806263
178	0x3f968915	1.1760584
179	0x3d3065b0	0.043065727
180	0x3f97c692	1.1857474
181	0x3fa4c459	1.287242
182	0xbf3554f8	-0.7083278
183	0x3fa0af57	1.255351
184	0xbd973954	-0.07383981
185	0xbf48734d	-0.78300935
186	0x3f047de0	0.5175457
187	0x3e030ddc	0.12798256
188	0xbf5a359f	-0.8523807
189	0x3f5dbcb4	0.86616063
190	0xbeae0a74	-0.3399235
191	0x3fe7f88d	1.8122727
192	0x3e778a9e	0.24173972
193	0x3e10857f	0.14113425
194	0x3fea1312	1.828707
195	0x3ee42fc2	0.44567686
196	0x3e9d1999	0.30683592
197	0xbf7099e8	-0.9398484
198	0x3e85a8cc	0.26105344
199	0xbf8e18b8	-1.1101294
200	0xbe21d765	-0.15804823
201	0x3caa6ac2	0.02080286
202	0x3d7bd18b	0.061479133
203	0xbf8ef1e7	-1.1167573
204	0x3f85a04a	1.0439541
205	0xbf7ecee5	-0.99534446
206	0xbee5980c	-0.44842565
207	0xbe49fd10	-0.19725442
208	0xbe0d709b	-0.13812487
209	0x3f4dcd1f	0.80391115
210	0x3f5d297e	0.8639144
211	0x3ee09621	0.4386454
212	0xbf5c5a75	-0.86075526
213	0xbf1b8e59	-0.6076408
214	0x3f2ef7d6	0.6834692
215	0x3e85df08	0.26146722
216	0xbe39cd42	-0.18144706
217	0x3f607adb	0.8768746
218	0x3e7c5201	0.24640657
219	0x3f519690	0.81870365
220	0x3f2ba81e	0.670534
221	0x3dfd26d8	0.123609245
222	0xbdee81a7	-0.11645823
223	0xbfbb2478	-1.4620504
224	0x3f44c6a4	0.768656
225	0x3f97200d	1.1806656
226	0x3f43a9ed	0.7643116
227	0xbfa880aa	-1.3164265
228	0x3fa06e42	1.2533648
229	0xbf3be5e0	-0.73397636
230	0x3fb09c1a	1.3797638
231	0xbfe9c977	-1.8264607
232	0x3edc51a2	0.4303103
233	0x3f66b0f2	0.9011375
234	0x3eadde8c	0.33958852
235	0xbf79748c	-0.9744346
236	0x3d7b76f0	0.061392725
237	0xbf8c5c60	-1.0965691
238	0x3ef8b07f	0.48572156
239	0xbf76e892	-0.96448624
240	0x3f58be42	0.8466531
241	0x3f0eb38f	0.55742735
242	0xc01910d7	-2.3916528
243	0x3f269e14	0.6508496
244	0xbfd3575b	-1.6511034
245	0xbf83f1ff	-1.0308226
246	0xbcd0f878	-0.025509104
247	0xbdabe286	-0.08392815
248	0xbf831f19	-1.0243865
249	0xbf94965a	-1.1608384
250	0x3f0bdb75	0.5463174
251	0xbf1cf102	-0.6130525
252	0x3fa5d83b	1.2956613
253	0x3eb12414	0.34597838
254	0x3f41b404	0.7566531
255	0x3ec5715e	0.38563055

base_model.model.output.lora_A.weight f4 [4, 128]
0	0x3d00cb08	0.031443626
1	0x3d0bd293	0.034136366
2	0xbdd48f1d	-0.10378859
3	0x3d97d7c8	0.07414204
4	0x3dd18e4d	0.1023222
5	0xbcd481c3	-0.025940781
6	0xbda27599	-0.07932586
7	0xbc4ce373	-0.0125054
8	0x3d71b2ed	0.059008528
9	0x3ca02dfc	0.019553177
10	0xbd4a2375	-0.04935022
11	0x3ca87cd5	0.020567337
12	0x3d884f88	0.066557944
13	0x3dc6ab52	0.097006455
14	0x3d88bf3c	0.066771
15	0xbd8306bf	-0.06397771
16	0xbd776d92	-0.06040723
17	0xbc9a330c	-0.01882317
18	0xbd027a03	-0.03185464
19	0x3bd570e6	0.0065137027
20	0xbcbe88d3	-0.023258602
21	0xbcfd2c44	-0.030904897
22	0xbd32fe37	-0.04369947
23	0xbd5c29cb	-0.053750794
24	0x3d3bd2f1	0.045855466
25	0xbd1b961d	-0.037984956
26	0x3d2ef1a0	0.0427109
27	0x3d89b5fb	0.06724163
28	0x3c8209c6	0.015873801
29	0xbcf1f149	-0.029533999
30	0xba5df58b	-0.000846707
31	0xbc0deece	-0.0086628925
32	0xbdb5f6e7	-0.088849835
33	0x3d81c269	0.06335909
34	0xbc057b5c	-0.008147087
35	0x3cc8a702	0.024493698
36	0x3d91a8d5	0.0711228
37	0x3d8a9860	0.067673445
38	0x3dcb3372	0.09921922
39	0x3d851ee5	0.06500033
40	0xba02bfcb	-0.0004987686
41	0xbdc63459	-0.09677953
42	0xbdd1a57a	-0.1023664
43	0x3cade79b	0.021228602
44	0xbdba3f31	-0.09094084
45	0xbdb71264	-0.089390546
46	0xbd9edb47	-0.077566676
47	0xbd108345	-0.03528144
48	0xbd722dff	-0.059125897
49	0x3dd14d63	0.102198385
50	0xbd9ee3a1	-0.077582605
51	0x3da9fb2f	0.082998626
52	0x3dc913b4	0.09818211
53	0x3d82e794	0.06391826
54	0xbd894f84	-0.067046195
55	0x3d910cf8	0.07082552
56	0xbd926cec	-0.071496814
57	0xbd169bf1	-0.03676981
58	0x3d422ae1	0.047404174
59	0x3cde855d	0.027163202
60	0x3d623c3c	0.055233225
61	0x3d815521	0.06315065
62	0xbcfdc925	-0.030979702
63	0xbda7cc1c	-0.08193228
64	0x3bd929b6	0.006627287
65	0x3d842532	0.06452407
66	0xbd67ee19	-0.056623552
67	0xbdc066d8	-0.09394616
68	0x3b155f85	0.002279253
69	0xbbddec3d	-0.0067725466
70	0xbdb2eea1	-0.08736921
71	0xbda3be24	-0.07995251
72	0x3c620b91	0.013796703
73	0x3db382fa	0.08765216
74	0xbd092484	-0.03348209
75	0xbbb4284e	-0.0054979688
76	0xbd3eca8e	-0.04657989
77	0x3c821b00	0.015882015
78	0x3d15194a	0.03640107
79	0x3c4f5765	0.012655114
80	0xbd0d3040	-0.034469843
81	0xbccb1169	-0.024788575
82	0x3d0984c9	0.0335739
83	0xbd83d755	-0.06437556
84	0xbcf10a5b	-0.029423883
85	0xbbcd8504	-0.00627196
86	0xbc39bb6f	-0.011336192
87	0xbd4671d6	-0.048448406
88	0xbd8c651e	-0.06855224
89	0x3cfdfd1c	0.031004481
90	0x3d831e43	0.06402256
91	0xbd2c5e2c	-0.042081997
92	0x3c7bb800	0.015363693
93	0x3d506f87	0.05088761
94	0xbd68718b	-0.056748908
95	0x3c8d27c4	0.017230876
96	0x3d847099	0.06466789
97	0xbdb8d76b	-0.09025463
98	0x3d152695	0.036413748
99	0x3d7425f7	0.05960652
100	0x3d3b3165	0.045701403
101	0x3d98fbbe	0.07469891
102	0x3c893b5d	0.01675194
103	0x3da9df0b	0.08294495
104	0xbd0d36f1	-0.034476224
105	0xbd2fdab9	-0.0429332
106	0x3d439cf1	0.047757093
107	0x3d550b58	0.05201277
108	0x3a9017d0	0.0010993425
109	0x3d1a1067	0.0376133
110	0xbd29f98c	-0.041497752
111	0x3d085be7	0.03329077
112	0xbda358dd	-0.07975934
113	0x3d01d81d	0.031700242
114	0xbd140ccb	-0.036145013
115	0xbcdd6691	-0.027026447
116	0xbd452410	-0.048130095
117	0xbd4bb064	-0.049728766
118	0xbdcc0bda	-0.09963198
119	0x3d78d3b2	0.060748763
120	0x3d88370f	0.066511266
121	0x3d9147f3	0.07093801
122	0x3d83fddb	0.064449035
123	0xbc70a7cb	-0.014688442
124	0x3d94202e	0.072327
125	0xbd94e521	-0.07270265
126	0xbd3439b7	-0.044000354
127	0xbb6fbf48	-0.0036582518
128	0x3c839b08	0.016065136
129	0xbd7e5c08	-0.062099487
130	0x3da9a683	0.08283713
131	0x3c903c90	0.017607003
132	0x3d26308f	0.040573653
133	0x3d4d5502	0.050129898
134	0x3cdf55f0	0.027262658
135	0x3cf9cc7a	0.03049301
136	0xbb24eb7e	-0.0025164778
137	0xbd98cc3c	-0.074608296
138	0xbdb383d2	-0.08765377
139	0xbc80f426	-0.015741419
140	0x3d8b3c15	0.06798569
141	0x3d33e54c	0.043919846
142	0xbd2e1797	-0.042502966
143	0x3c73c532	0.014878558
144	0xbc915841	-0.017742278
145	0x3d64779c	0.05577813
146	0xbcc26186	-0.023728143
147	0x3d64020c	0.055666015
148	0xbcac0c81	-0.021002056
149	0x3c82d70a	0.01597168
150	0xbc6dd5db	-0.014516319
151	0xbcf54990	-0.029942304
152	0x3dbcfcc9	0.092279024
153	0x3bb930aa	0.005651553
154	0x3d8bf185	0.068331756
155	0xbb123372	-0.0022308496
156	0x3ce628bc	0.028095596
157	0xbcda2b41	-0.026631953
158	0xbc39a26f	-0.011330231
159	0xbc049d4e	-0.008094145
160	0x3d5b9aab	0.0536143
161	0x3dbbbe30	0.09167135
162	0xbd866e4b	-0.065640055
163	0xbcff7ae1	-0.031186523
164	0xbd165637	-0.036703315
165	0xbd0abaf6	-0.033869706
166	0x3d5802bd	0.052736986
167	0xbc83e300	-0.016099453
168	0x3d912b30	0.070883155
169	0x3d845aa1	0.064625986
170	0x3bf8659c	0.007580472
171	0x3cacdd73	0.021101689
172	0xbd20e936	-0.039284907
173	0x3daa3fe0	0.083129644
174	0x3db62515	0.088937916
175	0xbd0ac84f	-0.033882435
176	0x3c132878	0.0089818165
177	0x3d81e762	0.06342961
178	0x3db21aae	0.08696495
179	0xbb94d6b4	-0.004542196
180	0xbd8d6b81	-0.0690527
181	0xbd217249	-0.03941563
182	0x3db73427	0.08945494
183	0x3d841aa9	0.064503975
184	0xbcaacdc2	-0.020850066
185	0xbd49ee44	-0.049299493
186	0x3d9fa758	0.0779559
187	0xbc9666db	-0.018359592
188	0xbd40c49d	-0.047062505
189	0x3d39d7d1	0.045371834
190	0xbd799c12	-0.060939856
191	0xbcf5d287	-0.030007614
192	0xbccdc88c	-0.025120042
193	0xbcf66af4	-0.030080296
194	0x3ca93f90	0.020660192
195	0x3d93c581	0.07215405
196	0xbdceb570	-0.100932
197	0x3d1991b0	0.037492454
198	0x3d76ff85	0.060302276
199	0xbd2a2525	-0.04153933
200	0xbd7924a9	-0.060825977
201	0x3c49b135	0.012310316
202	0x3cd2ac74	0.025716998
203	0xbcca42e0	-0.024690092
204	0x3c95fc6b	0.018308839
205	0xbc07641a	-0.008263612
206	0x3d83cf41	0.06436015
207	0xbd938461	-0.07202984
208	0x3c86f970	0.016476363
209	0xbdb17def	-0.08666598
210	0x3ca91a38	0.020642385
211	0xbd0d33ca	-0.034473218
212	0xbcc5cf7e	-0.024146792
213	0xbd4aef26	-0.049544476
214	0xbc8fbd96	-0.017546456
215	0xbbc1280a	-0.0058946656
216	0xb9350c6c	-0.00017266133
217	0x3d8a19fd	0.06743238
218	0x3d945a8b	0.07243832
219	0x3d556d58	0.05210623
220	0x3daba0c2	0.083802715
221	0x3c11c50d	0.008897078
222	0x3a6b4cc7	0.0008975979
223	0x3c18487e	0.009294627
224	0x3b72b16a	0.0037032017
225	0xbd818a41	-0.06325198
226	0x3d5e4377	0.05426356
227	0xbd82ada7	-0.06380778
228	0x3d674098	0.056458086
229	0xbda66bbb	-0.08126017
230	0xbd142d3c	-0.03617595
231	0xbdb716e4	-0.08939913
232	0xbdb422bb	-0.08795687
233	0x3cc12be8	0.023580506
234	0xbd07582f	-0.033043083
235	0xbd53e6d8	-0.05173382
236	0xbd2856d1	-0.04109842
237	0x3b027869	0.0019908196
238	0xbd3ec93c	-0.04657863
239	0xbdbb9bb4	-0.091605574
240	0x3da0bc49	0.078484125
241	0x3d8f09a5	0.069842614
242	0x3c96356a	0.018336017
243	0x3cfef94b	0.031124732
244	0xbd3ae6d3	-0.045630287
245	0x3d0d9a5e	0.034571044
246	0xbc3b1241	-0.011417926
247	0xbccdaed8	-0.025107786
248	0xbbc834d6	-0.006109814
249	0x3aaada96	0.0013035114
250	0x3cecfc5e	0.028928932
251	0x3c81dbbe	0.015851852
252	0xbd41cbb4	-0.047313407
253	0xbd77264a	-0.06033925
254	0xbcac804d	-0.021057272
255	0x3d0a1eba	0.03372071

base_model.model.output.lora_B.weight f4 [58, 4]
0	0xbc8c661a	-0.01713853
1	0x3c820f63	0.015876478
2	0xbc8bda1d	-0.017071778
3	0xbc8e42a4	-0.017365761
4	0xbc8b9388	-0.017038122
5	0x3c8ced46	0.017202985
6	0xbc864052	-0.016388092
7	0xbc8eb3c8	-0.01741971
8	0x3c8c9c14	0.017164268
9	0xbc90cbfe	-0.017675396
10	0x3c88ec2d	0.01671418
11	0x3c917c01	0.017759325
12	0x3c8cd3ce	0.01719084
13	0xbc9069ec	-0.017628632
14	0x3c8b9b25	0.017041752
15	0x3c8f6a95	0.017506877
16	0x3c8ce417	0.017198605
17	0xbc90bc71	-0.01766798
18	0x3c893215	0.016747514
19	0x3c922be9	0.017843204
20	0xbc6ddaf5	-0.014517535
21	0x3c217dc3	0.009856644
22	0xbb74abe8	-0.003733391
23	0x3c88b7e7	0.016689254
24	0x3c88cd76	0.016699534
25	0xbc8b5399	-0.017007636
26	0x3c85510d	0.016274
27	0x3c633a94	0.013868947
28	0x3c8c209b	0.017105391
29	0xbc91b623	-0.017787045
30	0x3c8a8087	0.01690699
31	0x3c91af58	0.017783806
32	0x3c0e61ec	0.008690339
33	0xbc8dbe4b	-0.017302653
34	0x3c8dcb87	0.017308963
35	0xbc17f651	-0.009275035
36	0x3c8c847b	0.017153015
37	0xbc9216e7	-0.017833186
38	0x3c8a9776	0.016917925
39	0x3c90e8e0	0.017689168
40	0x3c8dd34d	0.01731267
41	0xbc91f626	-0.017817568
42	0x3c8aebbb	0.016958108
43	0x3c921e0a	0.01783659
44	0x3c50c002	0.012741091
45	0xbc8ac522	-0.016939703
46	0x3c87d452	0.016580734
47	0xbb47251f	-0.0030387116
48	0x3c8ce0e4	0.01719708
49	0xbc92384a	-0.017849106
50	0x3c8b1b54	0.016980805
51	0x3c909d9c	0.017653279
52	0xbbd4dc90	-0.0064960197
53	0xbc8b7055	-0.017021338
54	0xbb63cf80	-0.003476113
55	0xbbf10074	-0.0073547903
56	0x3bbf78a2	0.005843238
57	0xbc6dc9b6	-0.014513424
58	0xbc7d0d42	-0.015445055
59	0x3be90e89	0.0071123284
60	0xbc2609f2	-0.010134207
61	0xbbadede5	-0.0053079003
62	0xbc69426c	-0.014237028
63	0xbc5252c4	-0.012837116
64	0x3c8cc0bf	0.017181752
65	0xbc92e3f0	-0.017930955
66	0x3c8b4ad9	0.017003464
67	0x3c9031b3	0.017601823
68	0x3c8771e9	0.016533809
69	0xbc8f04d7	-0.017458363
70	0x3c89e4e9	0.016832786
71	0x3c8f4757	0.017490072
72	0x3c8d82ea	0.017274339
73	0xbc8dd634	-0.017314054
74	0x3c8b55f0	0.017008752
75	0x3c9134c1	0.01772535
76	0x3c8cc4e1	0.017183723
77	0xbc90f581	-0.01769519
78	0x3c89e574	0.016833045
79	0x3c925f8d	0.017867828
80	0x3c8d500e	0.017250087
81	0xbc927bb0	-0.017881244
82	0x3c8b2ea6	0.016990017
83	0x3c91a39f	0.017778216
84	0x3c8d6007	0.017257703
85	0xbc91daba	-0.017804492
86	0x3c8ad8a2	0.016949002
87	0x3c916168	0.017746642
88	0x3c8d1304	0.017220981
89	0xbc923147	-0.017845763
90	0x3c8afeb0	0.016967148
91	0x3c907576	0.017634135
92	0x3c8d5e2e	0.017256822
93	0xbc92fdbd	-0.017943257
94	0x3c8bcb68	0.017064765
95	0x3c90cd47	0.017676009
96	0x3c8d6f1d	0.017264897
97	0xbc9193c5	-0.017770657
98	0x3c8c956d	0.017161096
99	0x3c900f7c	0.017585509
100	0x3c8c72ae	0.017144527
101	0xbc8fdc94	-0.017561235
102	0x3c8956ba	0.016764987
103	0x3c927ce0	0.01788181
104	0x3c8dc16b	0.017304143
105	0xbc92e181	-0.017929794
106	0x3c8beb98	0.017080113
107	0x3c912111	0.017715963
108	0x3c8d7f93	0.017272746
109	0xbc930ef3	-0.017951464
110	0x3c8be401	0.017076494
111	0x3c910c48	0.017706051
112	0x3c8d2cbc	0.017233245
113	0xbc928c0a	-0.017889041
114	0x3c8acbc6	0.01694287
115	0x3c912db6	0.017721992
116	0x3c8cdfd3	0.017196571
117	0xbc92af51	-0.017905863
118	0x3c8ba9a1	0.017048659
119	0x3c8fcd48	0.01755394
120	0x3c8cd063	0.01718921
121	0xbc8f4b07	-0.01749183
122	0x3c88abab	0.01668342
123	0x3c92dd58	0.01792781
124	0x3c8d59f3	0.017254805
125	0xbc91bdcc	-0.017790698
126	0x3c8a2eb7	0.016867978
127	0x3c928164	0.017883964
128	0x3c8cdce4	0.017195173
129	0xbc8e3249	-0.017357962
130	0x3c8b86a5	0.017031977
131	0x3c8fbd50	0.017546326
132	0x3c8d41fa	0.017243374
133	0xbc916e29	-0.017752724
134	0x3c8aa300	0.016923428
135	0x3c92e402	0.017930988
136	0x3c8cf9db	0.017208984
137	0xbc91bd87	-0.017790569
138	0x3c8a2fc9	0.016868489
139	0x3c9237ac	0.017848812
140	0x3c8c8920	0.01715523
141	0xbc8fb507	-0.017542375
142	0x3c888167	0.016663266
143	0x3c928d80	0.017889738
144	0x3c8c3930	0.017117113
145	0xbc914a1a	-0.01773553
146	0x3c8b8f52	0.017036114
147	0x3c8ea16f	0.017410962
148	0x3c8cf024	0.017204352
149	0xbc913f71	-0.017730447
150	0x3c8a0c06	0.016851436
151	0x3c91c7ed	0.017795527
152	0x3c8db148	0.017296448
153	0xbc92b6a8	-0.017909363
154	0x3c8c16c5	0.017100701
155	0x3c912018	0.017715499
156	0x3c8d813c	0.017273538
157	0xbc9200e0	-0.017822683
158	0x3c8ab675	0.016932705
159	0x3c920965	0.017826745
160	0x3c8db758	0.01729934
161	0xbc91432a	-0.017732222
162	0x3c8c95e3	0.017161315
163	0x3c900d48	0.017584458
164	0x3c8cdc2f	0.017194835
165	0xbc915d97	-0.017744822
166	0x3c89d32c	0.016824327
167	0x3c91bce0	0.017790258
168	0x3c8d6a1e	0.017262515
169	0xbc90e514	-0.017687358
170	0x3c8b7ef0	0.017028302
171	0x3c90fc07	0.017698301
172	0x3c8d12d8	0.0172209
173	0xbc91c7d9	-0.01779549
174	0x3c8ae59d	0.016955191
175	0x3c91110f	0.01770833
176	0x3c8c72a7	0.017144514
177	0xbc91c9c8	-0.017796412
178	0x3c89a731	0.016803356
179	0x3c916207	0.017746938
180	0x3c8d8b7d	0.017278427
181	0xbc92071b	-0.017825654
182	0x3c8bdce2	0.017073099
183	0x3c905a50	0.01762119
184	0x3c8d0581	0.017214539
185	0xbc913efe	-0.017730232
186	0x3c8bc717	0.017062707
187	0x3c8f9967	0.017529203
188	0x3c8d5149	0.017250674
189	0xbc92d99b	-0.017926028
190	0x3c8c4aa0	0.017125428
191	0x3c900740	0.017581582
192	0x3c8d849b	0.017275145
193	0xbc929074	-0.017891146
194	0x3c8bca97	0.017064376
195	0x3c90cb69	0.017675119
196	0x3c8cd0ce	0.01718941
197	0xbc921151	-0.017830523
198	0x3c8bb332	0.01705322
199	0x3c8faed6	0.017539423
200	0x3c8d25a9	0.017229872
201	0xbc909809	-0.017650621
202	0x3c898cd4	0.016790785
203	0x3c929a07	0.017895712
204	0x3c3cc66e	0.011521919
205	0x3bc55328	0.006021876
206	0x3c89bbf6	0.01681326
207	0x3c7da8a3	0.015482101
208	0x3c402147	0.011726684
209	0xbc915296	-0.017739575
210	0x3c8a7779	0.016902672
211	0x3c55e04e	0.013053967
212	0x3c8c3a26	0.017117571
213	0xbc9306e8	-0.01794763
214	0x3c8a9faa	0.016921837
215	0x3c9049a6	0.017613243
216	0x3c8d75fe	0.017268177
217	0xbc924786	-0.01785637
218	0x3c8bb393	0.017053401
219	0x3c90ed7b	0.017691365
220	0x3c8d8162	0.017273609
221	0xbc90ac64	-0.017660327
222	0x3c8b1db8	0.016981944
223	0x3c913537	0.01772557
224	0x3c8d4714	0.017245807
225	0xbc92389e	-0.017849263
226	0x3c8a3542	0.016871098
227	0x3c90dd3e	0.017683621
228	0x3c00c690	0.007859841
229	0x3be70623	0.007050292
230	0x3c8b170e	0.016978767
231	0x3c8acf42	0.016944531
