stream-dev-conda-py/ollam/LoRA_pyspark/models/fully_offline_lora/checkpoint-40/adapter_model.safetensors (safetensors, 6400 bytes, 4 tensors)

base_model.model.embedding.lora_embedding_A f4 [4, 58]
000000 54 5f c6 bc e2 78 1b 3b 00 00 00 00 00 00 00 00
       -0.024215378 0.0023723175 0.0 0.0
000010 00 00 00 00 96 b4 af 3c c6 e3 bf 3c 78 9b bd 3c
       0.0 0.021448415 0.02342404 0.023145422
000020 ad 43 a8 3c 00 00 00 00 00 00 00 00 7b da 9f bc
       0.020540083 0.0 0.0 -0.01951336
000030 00 00 00 00 91 04 b8 bc 06 7f b3 3c c1 32 99 3c
       0.0 -0.022463115 0.021911155 0.01870096
000040 00 00 00 00 5e 44 93 3c 00 00 00 00 00 00 00 00
       0.0 0.017976936 0.0 0.0
000050 00 00 00 00 00 00 00 00 00 00 00 00 00 00 00 00
       0.0 0.0 0.0 0.0
000060 00 00 00 00 00 00 00 00 00 00 00 00 00 00 00 00
       0.0 0.0 0.0 0.0
000070 00 00 00 00 00 00 00 00 00 00 00 00 00 00 00 00
       0.0 0.0 0.0 0.0
000080 00 00 00 00 00 00 00 00 00 00 00 00 00 00 00 00
       0.0 0.0 0.0 0.0
000090 00 00 00 00 00 00 00 00 00 00 00 00 00 00 00 00
       0.0 0.0 0.0 0.0
0000a0 00 00 00 00 00 00 00 00 00 00 00 00 00 00 00 00
       0.0 0.0 0.0 0.0
0000b0 00 00 00 00 00 00 00 00 00 00 00 00 00 00 00 00
       0.0 0.0 0.0 0.0
0000c0 00 00 00 00 00 00 00 00 00 00 00 00 4e cc 80 3c
       0.0 0.0 0.0 0.01572242
0000d0 e9 77 3f 3b 00 00 00 00 00 00 00 00 00 00 00 00
       0.002921576 0.0 0.0 0.0
0000e0 00 00 00 00 2f 4a fe 3b 2c 6b aa bb c3 26 cd bc
       0.0 0.007760308 -0.005200764 -0.025042897
0000f0 00 00 00 00 00 00 00 00 00 00 00 00 db 94 c3 3c
       0.0 0.0 0.0 0.02387469
000100 ef 8c dc bc ce 2a b9 3c ce ef c6 bc 00 00 00 00
       -0.026922671 0.022603419 -0.02428427 0.0
000110 00 00 00 00 5a ae b3 bc 00 00 00 00 65 2f b4 3c
       0.0 -0.021933723 0.0 0.021995256
000120 89 ea b5 bc 38 a9 aa 3c 00 00 00 00 09 1a a0 bc
       -0.022206562 0.020832643 0.0 -0.019543665
000130 00 00 00 00 00 00 00 00 00 00 00 00 00 00 00 00
       0.0 0.0 0.0 0.0
000140 00 00 00 00 00 00 00 00 00 00 00 00 00 00 00 00
       0.0 0.0 0.0 0.0
000150 00 00 00 00 00 00 00 00 00 00 00 00 00 00 00 00
       0.0 0.0 0.0 0.0
000160 00 00 00 00 00 00 00 00 00 00 00 00 00 00 00 00
       0.0 0.0 0.0 0.0
000170 00 00 00 00 00 00 00 00 00 00 00 00 00 00 00 00
       0.0 0.0 0.0 0.0
000180 00 00 00 00 00 00 00 00 00 00 00 00 00 00 00 00
       0.0 0.0 0.0 0.0
000190 00 00 00 00 00 00 00 00 00 00 00 00 00 00 00 00
       0.0 0.0 0.0 0.0
0001a0 00 00 00 00 00 00 00 00 00 00 00 00 00 00 00 00
       0.0 0.0 0.0 0.0
0001b0 00 00 00 00 25 50 96 bc 1d 1e 2c 3c 00 00 00 00
       0.0 -0.018348763 0.010505226 0.0
0001c0 00 00 00 00 00 00 00 00 00 00 00 00 46 d2 98 bc
       0.0 0.0 0.0 -0.018654954
0001d0 12 f5 d6 3c 61 22 96 bc 00 00 00 00 00 00 00 00
       0.026239906 -0.01832694 0.0 0.0
0001e0 00 00 00 00 36 06 c7 3c f0 46 c3 3c 84 34 c7 3c
       0.0 0.024294954 0.023837537 0.024317034
0001f0 30 0e c4 3c 00 00 00 00 00 00 00 00 9d 74 b8 3c
       0.023932546 0.0 0.0 0.022516543
000200 00 00 00 00 ba 2e c3 3c f8 90 3e 3c e9 c6 bf 3c
       0.0 0.023825992 0.011631243 0.023410277
000210 00 00 00 00 bf 5d a5 bb 00 00 00 00 00 00 00 00
       0.0 -0.005046576 0.0 0.0
000220 00 00 00 00 00 00 00 00 00 00 00 00 00 00 00 00
       0.0 0.0 0.0 0.0
000230 00 00 00 00 00 00 00 00 00 00 00 00 00 00 00 00
       0.0 0.0 0.0 0.0
000240 00 00 00 00 00 00 00 00 00 00 00 00 00 00 00 00
       0.0 0.0 0.0 0.0
000250 00 00 00 00 00 00 00 00 00 00 00 00 00 00 00 00
       0.0 0.0 0.0 0.0
000260 00 00 00 00 00 00 00 00 00 00 00 00 00 00 00 00
       0.0 0.0 0.0 0.0
000270 00 00 00 00 00 00 00 00 00 00 00 00 00 00 00 00
       0.0 0.0 0.0 0.0
000280 00 00 00 00 00 00 00 00 00 00 00 00 00 00 00 00
       0.0 0.0 0.0 0.0
000290 00 00 00 00 00 00 00 00 00 00 00 00 56 d3 91 3c
       0.0 0.0 0.0 0.017800968
0002a0 03 00 92 3c 00 00 00 00 00 00 00 00 00 00 00 00
       0.017822271 0.0 0.0 0.0
0002b0 00 00 00 00 e8 51 9b 3c 0e d6 cd bc 8b a5 9d 3c
       0.0 0.018959954 -0.025126483 0.019243976
0002c0 00 00 00 00 00 00 00 00 00 00 00 00 ed 80 c1 3c
       0.0 0.0 0.0 0.023621047
0002d0 20 91 bc bc a8 df bf bc db 9e c7 3c 00 00 00 00
       -0.02301842 -0.023422077 0.02436774 0.0
0002e0 00 00 00 00 08 0d 90 bc 00 00 00 00 69 3c b6 bc
       0.0 -0.017584339 0.0 -0.022245603
0002f0 7d a7 99 bc 37 a7 c5 3c 00 00 00 00 84 b8 19 bc
       -0.018756622 0.024127586 0.0 -0.009382371
000300 00 00 00 00 00 00 00 00 00 00 00 00 00 00 00 00
       0.0 0.0 0.0 0.0
000310 00 00 00 00 00 00 00 00 00 00 00 00 00 00 00 00
       0.0 0.0 0.0 0.0
000320 00 00 00 00 00 00 00 00 00 00 00 00 00 00 00 00
       0.0 0.0 0.0 0.0
000330 00 00 00 00 00 00 00 00 00 00 00 00 00 00 00 00
       0.0 0.0 0.0 0.0
000340 00 00 00 00 00 00 00 00 00 00 00 00 00 00 00 00
       0.0 0.0 0.0 0.0
000350 00 00 00 00 00 00 00 00 00 00 00 00 00 00 00 00
       0.0 0.0 0.0 0.0
000360 00 00 00 00 00 00 00 00 00 00 00 00 00 00 00 00
       0.0 0.0 0.0 0.0
000370 00 00 00 00 00 00 00 00 00 00 00 00 00 00 00 00
       0.0 0.0 0.0 0.0
000380 00 00 00 00 3b 6d 93 3c 75 1f 8f 3c 00 00 00 00
       0.0 0.017996421 0.017471055 0.0
000390 00 00 00 00 00 00 00 00 00 00 00 00 99 72 94 bc
       0.0 0.0 0.0 -0.01812105

base_model.model.embedding.lora_embedding_B f4 [128, 4]
000000 0d 36 9d 3d 74 9c 05 3f 19 71 a3 3e a8 ae 20 3f
       0.07676325 0.52191854 0.31922224 0.62766504
000010 df a1 9b bd c7 cb c0 3e 17 6a d9 bf f7 23 d4 bf
       -0.07599234 0.3765547 -1.6985501 -1.6573476
000020 f0 31 31 bf 88 3b 08 bf a4 7c 77 bf ba 15 b9 3e
       -0.69216824 -0.5321584 -0.9667456 0.3614939
000030 d5 03 e0 3f 7d ba 57 be 4d 27 df 3e 4f dd d7 3f
       1.750117 -0.21067233 0.43584672 1.6864413
000040 83 b4 58 3e 5e c5 5f 3d f6 f0 96 bf 72 d4 27 3e
       0.2116261 0.054631583 -1.1792285 0.16389635
000050 80 b4 8d 3e d2 22 8d 3f f6 6b d2 3e 47 f1 b9 bc
       0.27676773 1.1026251 0.41097993 -0.022698058
000060 60 d5 34 3f 6a de e4 bf 20 9d 74 3f 5c d3 5e 3f
       0.70638084 -1.7880375 0.95552254 0.8704126
000070 c6 c1 51 3e 15 1c 4f 3e 6a d7 5a 3e 91 00 54 bf
       0.20484075 0.20225556 0.21371236 -0.82813364
000080 12 cd b1 bf 33 f0 e3 3d 1f 54 68 3e a6 ed 7b bd
       -1.3890707 0.11129799 0.2268834 -0.061505936
000090 87 bd b0 be ec 6d b7 3e 9f 15 4d c0 c1 92 af 3f
       -0.34519598 0.3582605 -3.2044446 1.3716661
0000a0 21 90 61 bf fb fa e1 be 11 6f 3e be 4b 4e 34 3f
       -0.8811055 -0.44136795 -0.18597056 0.70431966
0000b0 2d 2e e0 be 10 ab 87 bf 3b e8 dc 3f 5e 24 5f 3e
       -0.4378523 -1.0599079 1.7258371 0.21791217
0000c0 0e 31 12 40 44 6e 3e 3f 59 9a 85 bf c7 3c ce bf
       2.284244 0.74387 -1.0437728 -1.6112298
0000d0 8c 76 bf 3f 0e de f3 be d5 76 5c bb 54 e6 ff 3e
       1.4958053 -0.47630352 -0.0033640165 0.49980414
0000e0 d0 15 7c bf 20 39 56 bf 7c ba d7 bf e9 fe 60 3e
       -0.98470783 -0.83680916 -1.6853786 0.2197224
0000f0 8f f4 26 c0 1a 0e 33 bf ba 96 df be 9d 73 73 3f
       -2.6086767 -0.6994339 -0.43669683 0.95098287
000100 7a 8a 45 3f 03 4e cd 3e 1a 69 63 3e 5e a4 7e bf
       0.77164423 0.4009858 0.22208062 -0.99469554
000110 3b ec 40 bf 23 30 46 bf 4b 3a 64 bf 47 f3 8b bf
       -0.7536046 -0.774172 -0.8915145 -1.0933617
000120 2e 89 c8 3f c4 88 e1 bf 0e 4a 4b bf 69 b4 a3 bf
       1.5666864 -1.7619863 -0.79409873 -1.2789432
000130 86 9e d1 bd 9a 96 b5 3f 57 2e 39 bd 8b f7 7d 3f
       -0.10235314 1.4186585 -0.04521021 0.99205846
000140 c6 73 d5 bf a6 19 55 3f d8 46 c7 3f f8 28 9c 3f
       -1.6675956 0.8324226 1.5568495 1.2200003
000150 15 93 22 3e 57 03 b9 3e 16 56 1a bc d6 0e 4e 3f
       0.1587642 0.3613536 -0.009419939 0.8049139
000160 d7 dd 83 3f 29 cf e3 3f bd 20 f3 3c 38 37 a4 3e
       1.0302075 1.7797595 0.029678697 0.3207338
000170 78 12 29 3d 9b 9c 8e bf c9 70 de 3f 82 57 8e bf
       0.04127738 -1.1141542 1.7378169 -1.1120455
000180 ff 95 22 3f 48 e1 08 3d a3 73 8c bf 51 07 e2 3f
       0.63510126 0.03341797 -1.097279 1.7658483
000190 fe b1 4c 3e b8 5e d9 3f c0 ea 91 3f d8 30 48 3e
       0.19989774 1.6982031 1.1399765 0.19549882
0001a0 d5 4e 54 3f 92 92 61 bf a1 79 0e 3f dd 88 b9 bf
       0.8293279 -0.88114274 0.5565434 -1.4494892
0001b0 85 ca 18 bf c8 47 e4 bf d9 17 e7 3e 53 e1 42 bf
       -0.5968402 -1.7834406 0.45135382 -0.7612507
0001c0 5c e3 e9 be 38 38 07 40 e8 80 8e 3f 3f e6 21 bf
       -0.45681274 2.1128063 1.1133089 -0.6324195
0001d0 63 57 cd bd be 79 9e bf ee bf e3 be 4e 94 45 3f
       -0.10026433 -1.2380903 -0.44482368 0.7717942
0001e0 a1 cb 41 3f a0 f3 58 3e 1a 7b 3d bf ad 12 85 3f
       0.7570134 0.21186686 -0.74015963 1.0396324
0001f0 0b 7b 81 3d 76 32 f6 be 94 cf 2a be 44 44 f4 bd
       0.06322297 -0.48085374 -0.16680747 -0.11927083
000200 32 c0 e5 bf 4c 8f dc be 19 e6 51 3f d8 6c 3e 3f
       -1.7949278 -0.43078077 0.81991726 0.7438483
000210 7a 06 35 3e 20 e9 31 bf f3 b8 aa 3f 38 8b c8 3e
       0.17678252 -0.69496346 1.3337692 0.39168715
000220 5c cb 00 bf 95 03 86 bd 51 06 63 3d de 22 c9 be
       -0.503103 -0.06543652 0.055425946 -0.39284414
000230 4c bb d8 3d 9b 16 44 bf ab a4 c3 3f 17 d8 8c 3f
       0.10582599 -0.76596993 1.5284628 1.1003445
000240 a2 44 07 3f 96 7e 11 3f 71 98 bc bf 1a c2 ee be
       0.528391 0.5683378 -1.4734021 -0.46632463
000250 68 75 31 bf b2 9b 72 bf 65 bd f7 bb aa 6e 01 bf
       -0.6931977 -0.9476882 -0.0075604194 -0.50559485
000260 32 0d b1 3f 90 84 4d bf 97 1f 60 3e 34 49 14 bf
       1.3832152 -0.802804 0.2188705 -0.579242
000270 6b c9 f1 3f e0 5a a8 bf be f9 0c 3f e9 2c 71 be
       1.8889593 -1.3152733 0.55068576 -0.23552288
000280 c4 b4 38 bf fc cf 33 be 11 cf bb 3f c6 12 2a 40
       -0.72150826 -0.17559808 1.4672567 2.6573958
000290 97 da 00 bf fb 8e 25 bf 4a f7 91 be 25 2c 0c c0
       -0.5033354 -0.64671296 -0.2850898 -2.1901944
0002a0 c6 59 1b 3e 85 a5 d6 be 0f 0c 88 3f 62 6b 40 3e
       0.15170965 -0.41923156 1.062868 0.18790963
0002b0 bc fa 9b 3f 78 46 8c bc 8d 80 0e c0 5d de 52 3f
       1.2185893 -0.017123446 -2.226596 0.8237055
0002c0 a0 8d de bf 33 c7 a2 bd 42 12 98 3f 9d f1 fb 3c
       -1.738697 -0.079481505 1.1880572 0.030754859
0002d0 66 4a 97 3f 06 02 a3 3f 52 48 38 bf 61 1c a2 3f
       1.181958 1.2734993 -0.7198535 1.266491
0002e0 54 76 82 bd f7 df 4b bf 3e 86 01 3f c5 de 0f 3e
       -0.063702255 -0.7963862 0.5059546 0.14049824
0002f0 c9 9f 5d bf 6c 58 61 3f c2 5a a7 be 5e 3c e6 3f
       -0.8657194 0.88025546 -0.3268643 1.7987173
000300 b9 bc 69 3e a8 66 19 3e 38 bc eb 3f 58 5b dd 3e
       0.22825898 0.14980567 1.8416815 0.43233752
000310 50 1b 9b 3e 1e bc 73 bf 44 97 7d 3e d5 b0 8e bf
       0.30294275 -0.9520892 0.24764735 -1.1147715
000320 11 8c 15 be 33 5d 06 3d 5f e0 50 3d 2a 93 8d bf
       -0.14604212 0.032803725 0.050995227 -1.1060536
000330 68 38 87 3f 5e ee 7c bf 1b 17 ec be 46 21 3d be
       1.0564089 -0.9880122 -0.46111378 -0.18469724
000340 df 37 00 be 97 05 51 3f 73 7b 5c 3f 82 fb dd 3e
       -0.12521313 0.81649154 0.8612587 0.43355948
000350 1d 11 5f bf 9a 54 1e bf 29 63 2f 3f e9 9a 81 3e
       -0.8713549 -0.6184784 0.6851068 0.253135
000360 b7 36 2c be d9 16 61 3f 09 87 6e 3e 2a 08 55 3f
       -0.16817747 0.8792549 0.232937 0.8321558
000370 7d 91 28 3f d9 eb e6 3d e5 13 d6 bd 97 b6 bc bf
       0.65847 0.11275453 -0.10453013 -1.4743222
000380 bb e8 46 3f cd 43 98 3f c0 36 46 3f 68 39 a7 bf
       0.7769887 1.1895691 0.7742729 -1.3064394
000390 6c 84 a0 3f c4 ae 38 bf 01 3e b2 3f 19 6a eb bf
       1.2540412 -0.7214167 1.3925172 -1.8391753
0003a0 5e 62 e1 3e 5d e4 65 3f f5 8e a7 3e 4a 44 76 bf
       0.4402036 0.8980158 0.32726255 -0.9619795
0003b0 c5 91 88 3d 9d b5 8a bf 08 ba fe 3e eb 0d 7a bf
       0.06668428 -1.0836674 0.49751306 -0.9767749
0003c0 28 00 5c 3f 5c 00 12 3f fa 8f 19 c0 d2 dc 28 3f
       0.8593774 0.570318 -2.3994126 0.65961945
0003d0 c4 9f d1 bf 21 16 83 bf dc c7 1e bd 28 23 92 bd
       -1.6376882 -1.0241128 -0.03876482 -0.07135612
0003e0 37 2c 82 bf 8f f1 92 bf 72 ae 0e 3f a8 0b 20 bf
       -1.0169743 -1.1479968 0.5573493 -0.62517786
0003f0 62 7f a4 3f 97 eb aa 3e ac a1 42 3f af cf bf 3e
       1.2851374 0.33382866 0.7602794 0.37463138

base_model.model.output.lora_A.weight f4 [4, 128]
000000 14 2b 35 3d 95 b8 b2 3c 78 7d ee bd 5b 6c 9b 3d
       0.044230536 0.021816531 -0.11645025 0.075890265
000010 66 e6 e8 3d e1 78 0a bd 7e 76 ba bd cd 32 18 bc
       0.1137207 -0.033806685 -0.09104632 -0.009289456
000020 a9 0a 41 3d 79 c5 07 3d c3 f7 17 bd ff 55 0c 3c
       0.047129307 0.03314731 -0.03710152 0.008565425
000030 fb fd a2 3d bc 00 e1 3d c8 f0 95 3d d6 ac 51 bd
       0.07958599 0.10986468 0.07321316 -0.05119022
000040 57 dc 4c bd e0 b6 d3 bb c1 ab 37 bd 33 17 86 3c
       -0.05001482 -0.0064610094 -0.04484153 0.016368484
000050 f6 d0 2e bc e6 dc 92 bc 48 6a fb bc ce ef 76 bd
       -0.010669937 -0.017927598 -0.030690327 -0.06028729
000060 b7 ea 0c 3d b7 b9 cb bc dc 6b 60 3d b7 f4 a2 3d
       0.03440353 -0.02486883 0.054790363 0.07956832
000070 a7 c2 e7 3c 2e 86 20 bd 3c 43 42 3c 96 b2 81 3b
       0.02829106 -0.039190464 0.01185685 0.0039580567
000080 f4 74 cc bd 1e 38 4f 3d a8 40 9b 3b c7 a8 19 3d
       -0.099832445 0.050590627 0.0047379322 0.037514474
000090 23 38 ac 3d 0c ea 5e 3d 03 5a e5 3d 42 5f 56 3d
       0.08409145 0.054422423 0.11198809 0.05233694
0000a0 fc fc 58 bc d7 ac e0 bd 79 bb eb bd 64 cc 0c 3d
       -0.01324391 -0.109704666 -0.11510367 0.03437461
0000b0 8d bd d4 bd ca 3a d1 bd f6 7b b7 bd c3 75 db bc
       -0.103877164 -0.10216291 -0.089591905 -0.026789552
0000c0 7b 3f 91 bd 99 14 eb 3d 57 4f b9 bd ea 4a bb 3d
       -0.07092186 0.11478538 -0.09048336 0.09145148
0000d0 00 47 e3 3d 1c 9a 50 3d 87 1c a3 bd 12 42 ab 3d
       0.110975266 0.05092822 -0.079644255 0.08362211
0000e0 4f 01 ac bd 88 82 45 bd a4 a6 0d 3d e2 c2 23 3d
       -0.08398687 -0.048220187 0.03458275 0.039980777
0000f0 66 9a 38 3d 44 4f 9b 3d b7 a9 95 bc 13 72 c1 bd
       0.04506912 0.07583478 -0.018269403 -0.09445586
000100 57 83 8a bb f6 b4 57 3d e1 72 8e bd 1a 56 da bd
       -0.0042270827 0.052662812 -0.06955505 -0.10660954
000110 66 fe 41 3c ef 58 99 bc b9 98 cd bd 11 9b bd bd
       0.0118404385 -0.018719165 -0.10038895 -0.09258092
000120 08 6d da 3c b3 3a cc 3d 8d c1 3d bd 7c d1 ea 3b
       0.026663318 0.099721335 -0.046327163 0.0071660858
000130 2b 02 0c bd 0e b4 e0 3c 13 ef c0 3c 92 0b cf 3c
       -0.034181755 0.027429607 0.0235515 0.025274072
000140 03 3f b3 bc 7b 75 8f bc 3b 1f a9 3c 2e b5 52 bd
       -0.021880632 -0.017512074 0.020644775 -0.051442318
000150 94 10 89 bc 37 d3 9a bc c6 a2 ac bc 54 1b 7c bd
       -0.016731538 -0.018899543 -0.02107371 -0.0615495
000160 61 b3 a6 bd e6 cd 2c 3d db 4e 55 3d b2 39 61 bd
       -0.081396826 0.042188548 0.052077156 -0.054986663
000170 1c 7f 36 3b ec ba 82 3d 49 47 8b bd aa d5 e7 3c
       0.002784676 0.06383309 -0.06800706 0.028300125
000180 f6 29 9e 3d 6d d4 d2 bd 87 fc 39 3d c7 39 8a 3d
       0.07722847 -0.10294423 0.045406844 0.067493014
000190 24 f2 6c 3d f5 e1 b2 3d 82 69 08 3c 8d 69 c4 3d
       0.05784811 0.08734504 0.008325936 0.09590445
0001a0 66 a1 b1 bc 22 92 63 bd da c0 77 3d 9c b9 84 3d
       -0.021683406 -0.055559285 0.060486652 0.06480715
0001b0 d6 06 29 bc 40 ef 4b 3d f6 81 4d bd 19 d7 3e 3d
       -0.010316571 0.049788713 -0.05017277 0.04659185
0001c0 a0 4f bd bd 3b e2 15 3d 91 fd bf bc 59 6f 22 bd
       -0.09243703 0.036592703 -0.02343634 -0.03965697
0001d0 eb 16 10 bd 51 0c 7e bd d3 72 e0 bd 0c 41 43 3d
       -0.035178106 -0.062023465 -0.10959401 0.047669455
0001e0 bf c1 5b 3d 70 13 ab 3d df ac 55 3d 10 6c e1 bc
       0.053651568 0.08353317 0.052166816 -0.027517349
0001f0 ab 7d ac 3d 9b 46 7f bd 4b 3c 66 bd b1 ae 85 bc
       0.08422407 -0.062323194 -0.056209844 -0.01631865
000200 1d a3 4e 3b 87 58 4a bd f1 25 c4 3d 9d 7a 92 3c
       0.0031530329 -0.049400833 0.09577549 0.017880732
000210 07 90 ee 3c 73 ea 6d 3d 60 5c 22 3d a1 a9 dc 3c
       0.029121412 0.058084916 0.039638877 0.026936354
000220 c3 25 20 3c 31 93 b4 bd 7a c5 cc bd 07 86 6f bb
       0.009774628 -0.08817137 -0.09998603 -0.0036548392
000230 37 fa 5f 3d 23 57 fb 3c 59 81 4f bd d3 f1 f3 3a
       0.054681983 0.030681198 -0.050660465 0.0018611498
000240 0c f7 e5 bc 2a 8e 2f 3d 41 f7 2b bc ba 32 47 3d
       -0.028071903 0.042860188 -0.010495962 0.04863236
000250 e9 2f 0b bd 9d 2b 3b 3b c7 a5 e3 bc e9 38 bf bc
       -0.033981238 0.002855993 -0.02778901 -0.023342567
000260 d8 14 d5 3d 4a cd fe bb 15 85 67 3d 9f 5f 6b bc
       0.10404366 -0.007775937 0.0565234 -0.01436606
000270 5f 41 7b 3c 8d f6 83 bc 73 7c c7 bc ca 8a ab bc
       0.01533541 -0.016108776 -0.024351334 -0.020940203
000280 ec c0 82 3d ca 83 d6 3d f0 0b a1 bd 2a e8 34 bd
       0.06384453 0.104743555 -0.07863605 -0.04416672
000290 d1 20 4c bd 6f 4e a8 bc 20 d8 22 3d 26 4b 51 bb
       -0.049835984 -0.020545213 0.039756894 -0.003193566
0002a0 cc a8 ab 3d 91 46 9f 3d f6 09 a9 3c b3 df 01 3c
       0.08381805 0.07777131 0.020634633 0.007926869
0002b0 0c 35 d5 bc 54 d2 c4 3d 33 85 ce 3d 69 0f 28 bd
       -0.026026271 0.096104294 0.100839995 -0.04103032
0002c0 f7 ed b0 3c a9 61 4f 3d 42 00 cd 3d 03 39 3c bc
       0.021597845 0.050630245 0.10009815 -0.011488202
0002d0 20 3b a8 bd 80 07 d7 bc b6 a0 d1 3d 64 32 53 3d
       -0.08214402 -0.026248693 0.10235731 0.051561728
0002e0 7b 36 06 bc eb bb 1a bd 4f 47 ba 3d ed 01 01 bd
       -0.0081917 -0.03777687 0.09095632 -0.031495977
0002f0 12 75 16 bd 3e 0e 05 3d 1f 47 97 bd 09 a6 8c bc
       -0.03673274 0.032484286 -0.07386612 -0.017169015
000300 70 b3 6a bc 46 d0 92 bc 83 0e 0a 3d f1 4a ae 3d
       -0.014325008 -0.017921578 0.033705246 0.08510388
000310 11 45 e8 bd b1 81 4a 3d 3f bd 95 3d 0f 91 ea bc
       -0.11341298 0.04944009 0.073114865 -0.028633622
000320 50 63 97 bd 20 bb 4a b9 7b ef 1f 3d 3a 3c 18 bd
       -0.07391989 -0.0001933393 0.039046746 -0.03716681
000330 3b f9 bf 3b 89 91 a3 bc 2c 8e 9e 3d d6 cd ad bd
       0.005858568 -0.019966858 0.07741961 -0.08486526
000340 6d 88 67 3b 97 b4 b8 bd 4b 11 0a 3d 54 35 43 bd
       0.003532912 -0.0901882 0.033707898 -0.04765828
000350 d8 23 18 bd 26 b1 16 bd 67 bc f1 bb 2b 64 f3 3b
       -0.03714356 -0.036790036 -0.0073771956 0.0074277124
000360 58 18 54 3c 9e cc 66 3d 74 19 ad 3d c5 b6 85 3d
       0.012945257 0.056347482 0.084521204 0.06529001
000370 b9 29 c6 3d 29 b2 8b bb 20 37 42 3c d2 6a fc ba
       0.09675927 -0.0042631817 0.011853963 -0.0019257909
000380 ae 7f 13 bc 2b c4 4d bd 0f d9 35 3d 05 fd 90 bd
       -0.009002609 -0.05023591 0.044396456 -0.0707951
000390 ff 18 35 3d 38 cc c0 bd bf d1 f4 bc 4b 01 d2 bd
       0.04421329 -0.09413952 -0.029885171 -0.10254153
0003a0 6a b2 ce bd 68 bf 15 3d a6 72 3c bd 2a b5 84 bd
       -0.100926235 0.036559492 -0.046007775 -0.06479867
0003b0 26 70 f1 bc ad 21 2c bc 37 eb 17 bd ef dc d6 bd
       -0.029472422 -0.010506076 -0.037089553 -0.104913585
0003c0 02 2f bb 3d 3e 17 91 3d 0c 3e af 3b 97 53 34 3d
       0.091398254 0.07084511 0.0053479727 0.04402503
0003d0 d6 75 70 bd 63 9f 41 3d 2e 6e 7e ba 78 ca 41 bc
       -0.058706127 0.047271144 -0.0009705749 -0.0118280575
0003e0 6f 20 e4 3b f0 71 3d bc 1e af 29 3d 12 49 eb 3c
       0.006961874 -0.011562809 0.04142677 0.028721366
0003f0 83 f0 72 bd 09 34 8c bd 90 83 0f bc b6 a0 3e 3d
       -0.0593114 -0.068458624 -0.008759394 0.046539985

base_model.model.output.lora_B.weight f4 [58, 4]
000000 7a 50 eb bc 6b 67 ee 3c b0 ab e8 bc 13 97 f0 bc
       -0.028724898 0.029102048 -0.02840218 -0.029368913
000010 8e 0f e4 bc 32 55 eb 3c 77 67 d7 bc 76 a8 f6 bc
       -0.027839448 0.028727148 -0.026294453 -0.030109625
000020 e9 fb e7 3c b1 db f8 bc 19 75 de 3c 88 34 f7 3c
       0.028318362 -0.030378195 0.027155446 0.030176416
000030 80 ea e7 3c c3 88 fb bc 2f 8b e3 3c 04 88 f0 3c
       0.02831006 -0.030704862 0.027776329 0.029361732
000040 0a b0 e8 3c b3 02 f8 bc ab 24 df 3c d9 50 f9 3c
       0.028404254 -0.030274725 0.027239164 0.030434059
000050 11 92 67 bc c1 3f 8c 3a 51 1e 15 3c 87 21 f8 3c
       -0.014133946 0.0010700152 0.009101466 0.030289425
000060 c4 60 e0 3c e9 7f e5 bc d7 64 d7 3c b9 e4 d7 3c
       0.027389891 -0.028015094 0.026293201 0.02635418
000070 c1 76 e5 3c 7f 87 fa bc f7 20 e1 3c 97 78 f6 3c
       0.028010728 -0.030582188 0.02748154 0.030086799
000080 ea e7 b4 3c 59 b9 f4 bc b4 d0 ef 3c 28 a6 27 b9
       0.022083241 -0.029873537 0.029274322 -0.00015988259
000090 a3 01 e7 3c 1f ea f9 bc be 3f e1 3c 1c ef f5 3c
       0.028199023 -0.030507145 0.027496215 0.030021243
0000a0 87 4d eb 3c b3 94 fb bc 22 42 e3 3c e8 2c f9 3c
       0.028723491 -0.030710554 0.027741496 0.03041692
0000b0 15 ab be 3c 14 f3 e6 bc b9 b5 dd 3c e4 fd e8 3b
       0.023274938 -0.02819208 0.027064191 0.0071103442
0000c0 c8 35 e8 3c a1 b8 fb bc 81 16 e3 3c f7 2e f5 3c
       0.028345957 -0.030727686 0.027720692 0.029929621
0000d0 8e cc c3 3a 05 84 ec bc ee a4 aa 3b b5 30 f2 3a
       0.0014938281 -0.028871546 0.0052076494 0.0018477651
0000e0 67 57 93 3b 4c f7 98 bc b7 ce c2 bc 9a 8f ba 3a
       0.004496503 -0.018672608 -0.02378021 0.001423347
0000f0 9e bd 1e bb fb 49 98 bc 3a bf 81 bc d1 3a 1f bc
       -0.0024221907 -0.018589964 -0.015838254 -0.009718613
000100 cf ad e7 3c 3d bc fb bc a5 c9 e2 3c 7d 44 f3 3c
       0.02828112 -0.030729407 0.027684042 0.029695744
000110 5b 3b e2 3c 33 20 f5 bc 8a ea de 3c e8 14 f4 3c
       0.027616194 -0.02992258 0.027211446 0.029795125
000120 81 ab ea 3c 45 ad fa bc 14 dd e3 3c f4 e0 f6 3c
       0.028646233 -0.0306002 0.02781538 0.030136563
000130 7f de e7 3c 34 17 f7 bc 53 f2 df 3c 61 67 f9 3c
       0.028304337 -0.030162431 0.027337229 0.030444803
000140 56 79 e9 3c e6 2c fa bc d5 df e2 3c de 82 f7 3c
       0.02850024 -0.030538987 0.027694622 0.03021377
000150 a4 24 ea 3c 9f bd fc bc cf d4 e2 3c 00 f2 f6 3c
       0.028581925 -0.030852137 0.027689366 0.030144691
000160 38 7c e8 3c f1 26 fc bc 78 4f e2 3c b2 8f f3 3c
       0.028379545 -0.030780287 0.027625784 0.029731605
000170 60 68 e9 3c 72 be fb bc d9 1b e4 3c 59 d3 f4 3c
       0.028492153 -0.03073046 0.02784531 0.029885935
000180 ef d5 ea 3c b1 d1 fd bc 59 a0 e7 3c 3f af f3 3c
       0.028666465 -0.030983778 0.028274702 0.02974665
000190 19 02 e7 3c 5e 06 f4 bc 08 b6 de 3c 8f f2 fa 3c
       0.028199242 -0.029788192 0.027186409 0.03063324
0001a0 f4 b4 ea 3c d0 ef fc bc 7e 19 e5 3c a1 1d f6 3c
       0.028650738 -0.03087607 0.027966257 0.030043425
0001b0 2c 26 ea 3c f3 f4 fc bc fa e2 e4 3c 9a c8 f5 3c
       0.028582655 -0.03087852 0.027940262 0.03000288
0001c0 71 e2 e8 3c 4f b9 fb bc 1a 2c e2 3c 57 2c f6 3c
       0.028428288 -0.03072801 0.02760892 0.03005044
0001d0 bb d4 e7 3c 5a 9b fc bc 66 f1 e3 3c 67 99 f2 3c
       0.02829968 -0.030835796 0.027825069 0.029614164
0001e0 af eb e8 3c 7f ec f3 bc 11 36 de 3c c1 8d fb 3c
       0.028432695 -0.029775856 0.02712539 0.030707242
0001f0 e0 ff e9 3c d6 c2 f9 bc fd 7f e1 3c 1d 33 fa 3c
       0.028564394 -0.030488413 0.02752685 0.03054195
000200 eb 50 e8 3c 7c 31 fa bc 4c be e3 3c bd e8 f1 3c
       0.028358897 -0.030541174 0.027800702 0.029529924
000210 ca 70 e9 3c 08 8f f7 bc 3d 6a e2 3c 50 fd fb 3c
       0.028496165 -0.03021957 0.027638549 0.030760437
000220 9d 63 e8 3c 90 95 f8 bc ba a4 e0 3c 09 e5 f8 3c
       0.028367812 -0.030344754 0.027422298 0.03038265
000230 48 7a e7 3c 51 e9 f3 bc a4 e3 dc 3c 4a ec f9 3c
       0.02825655 -0.02977434 0.026964016 0.03050818
000240 d2 27 e6 3c 3f 64 fb bc ff 42 e3 3c 48 37 ef 3c
       0.02809516 -0.03068745 0.027741907 0.029201165
000250 b0 79 e8 3c 16 b8 f8 bc 3e 7b e0 3c ee da f7 3c
       0.028378338 -0.030361217 0.027402516 0.030255761
000260 42 16 eb 3c 26 38 fe bc 7f 17 e6 3c a9 99 f6 3c
       0.028697137 -0.031032633 0.028087376 0.030102568
000270 d6 61 ea 3c e0 83 fa bc c6 e4 e2 3c ca fe f8 3c
       0.028611105 -0.030580461 0.027696978 0.03039493
000280 b0 68 ea 3c 3b 86 fc bc ab cc e6 3c dc d1 f2 3c
       0.028614372 -0.030825725 0.028173765 0.029641084
000290 51 63 e8 3c 64 86 f9 bc 48 ff df 3c 97 c4 f7 3c
       0.02836767 -0.03045959 0.027343407 0.030245109
0002a0 59 9c e9 3c 11 0d fc bc 8f d1 e3 3c 7d 4d f5 3c
       0.028516935 -0.03076795 0.027809886 0.029944176
0002b0 d0 ed e7 3c 31 cc f9 bc f8 d3 e1 3c 7e 6b f5 3c
       0.02831164 -0.030492874 0.027566895 0.029958483
0002c0 94 98 e6 3c 2e 53 f9 bc 0b 24 df 3c da 77 f6 3c
       0.028148927 -0.030435171 0.027238866 0.030086447
0002d0 75 f5 e9 3c e0 14 fd bc cc a2 e4 3c f3 a5 f3 3c
       0.028559426 -0.030893743 0.027909659 0.029742217
0002e0 e3 97 e8 3c f3 61 fc bc 9f 2f e4 3c ae a0 f1 3c
       0.028392738 -0.030808425 0.027854739 0.029495563
0002f0 17 b1 e9 3c 07 4f fd bc 24 d3 e5 3c f3 1b f3 3c
       0.028526826 -0.030921472 0.028054781 0.029676413
000300 b1 c8 e9 3c 14 15 fc bc cc 42 e4 3c 54 c7 f4 3c
       0.02853808 -0.03077177 0.027863882 0.029880203
000310 85 bb e7 3c e7 69 fc bc 72 d3 e3 3c f8 ba f1 3c
       0.028287658 -0.030812217 0.027810786 0.029508099
000320 db 9f e9 3c fd b0 f6 bc 24 32 e0 3c 97 bc fa 3c
       0.028518608 -0.030113691 0.027367659 0.030607505
000330 d0 b1 b4 3c 69 f2 1d 3b 59 47 e4 3c 43 9b d0 3c
       0.022057444 0.0024100787 0.027866052 0.02546466
000340 24 4c a9 3c e4 b1 f1 bc 46 1a de 3c 61 05 be 3c
       0.02066619 -0.02950377 0.027112138 0.023195924
000350 9a 78 e6 3c 47 fc fb bc 03 50 e1 3c 34 e4 f3 3c
       0.02813368 -0.030759944 0.027503973 0.029771902
000360 41 f7 e9 3c 9f 31 fc bc 08 f5 e4 3c 96 02 f6 3c
       0.028560283 -0.03078538 0.027948871 0.03003053
000370 19 a6 ea 3c 04 f0 fc bc 3c 8e e3 3c e7 5d f6 3c
       0.028643655 -0.030876167 0.027777784 0.030074073
000380 99 b6 e9 3c c8 f2 fc bc 32 01 e1 3c 70 ce f4 3c
       0.028529452 -0.030877486 0.02746639 0.029883593
000390 5b 91 86 3c 98 ad 1c 3b 99 a5 e8 3c fb bb ef 3c
       0.016426733 0.002390718 0.028399276 0.02926444
