stream-dev-conda-py/ollam/LoRA_pyspark/models/fully_offline_lora/checkpoint-60/adapter_model.safetensors (safetensors, 6400 bytes, 4 tensors)

base_model.model.embedding.lora_embedding_A f4 [4, 58]
00000000: db13 e8bc 5363 863a 0000 0000 0000 0000
00000010: 0000 0000 f0a8 bf3c 0027 de3c f29e d73c
00000020: e998 ba3c 0000 0000 0000 0000 2c51 bcbc
00000030: 0000 0000 728f d9bc 4592 ca3c 8dce aa3c
00000040: 0000 0000 4cac a83c 0000 0000 0000 0000
00000050: 0000 0000 0000 0000 0000 0000 0000 0000
00000060: 0000 0000 0000 0000 0000 0000 0000 0000
00000070: 0000 0000 0000 0000 0000 0000 0000 0000
00000080: 0000 0000 0000 0000 0000 0000 0000 0000
00000090: 0000 0000 0000 0000 0000 0000 0000 0000
000000a0: 0000 0000 0000 0000 0000 0000 0000 0000
000000b0: 0000 0000 0000 0000 0000 0000 0000 0000
000000c0: 0000 0000 0000 0000 0000 0000 0d3a 8d3c
000000d0: c852 923b 0000 0000 0000 0000 0000 0000
000000e0: 0000 0000 7f8d 0f3c 4fd0 00bb 5940 f6bc
000000f0: 0000 0000 0000 0000 0000 0000 d8a8 df3c
00000100: 3877 04bd 8b81 d03c 2258 e9bc 0000 0000
00000110: 0000 0000 dab1 d2bc 0000 0000 3c49 cc3c
00000120: 5d61 cdbc 487b bc3c 0000 0000 5022 c0bc
00000130: 0000 0000 0000 0000 0000 0000 0000 0000
00000140: 0000 0000 0000 0000 0000 0000 0000 0000
00000150: 0000 0000 0000 0000 0000 0000 0000 0000
00000160: 0000 0000 0000 0000 0000 0000 0000 0000
00000170: 0000 0000 0000 0000 0000 0000 0000 0000
00000180: 0000 0000 0000 0000 0000 0000 0000 0000
00000190: 0000 0000 0000 0000 0000 0000 0000 0000
000001a0: 0000 0000 0000 0000 0000 0000 0000 0000
000001b0: 0000 0000 03e2 b1bc dc29 293c 0000 0000
000001c0: 0000 0000 0000 0000 0000 0000 0ef8 b3bc
000001d0: f481 fd3c bca2 95bc 0000 0000 0000 0000
000001e0: 0000 0000 b1a5 e03c 5a5d d83c 83db e73c
000001f0: 3794 e23c 0000 0000 0000 0000 c048 d23c
00000200: 0000 0000 6233 e13c 9c13 873c cfff e13c
00000210: 0000 0000 246d f2bb 0000 0000 0000 0000
00000220: 0000 0000 0000 0000 0000 0000 0000 0000
00000230: 0000 0000 0000 0000 0000 0000 0000 0000
00000240: 0000 0000 0000 0000 0000 0000 0000 0000
00000250: 0000 0000 0000 0000 0000 0000 0000 0000
00000260: 0000 0000 0000 0000 0000 0000 0000 0000
00000270: 0000 0000 0000 0000 0000 0000 0000 0000
00000280: 0000 0000 0000 0000 0000 0000 0000 0000
00000290: 0000 0000 0000 0000 0000 0000 e608 ab3c
000002a0: f1f2 aa3c 0000 0000 0000 0000 0000 0000
000002b0: 0000 0000 64b7 b53c ce4c e7bc 4c4f d03c
000002c0: 0000 0000 0000 0000 0000 0000 254a e13c
000002d0: 51b9 d5bc 56e1 dabc 4a8f f03c 0000 0000
000002e0: 0000 0000 736c 97bc 0000 0000 a6ad cbbc
000002f0: bf2d 98bc 7553 e93c 0000 0000 0837 3cbc
00000300: 0000 0000 0000 0000 0000 0000 0000 0000
00000310: 0000 0000 0000 0000 0000 0000 0000 0000
00000320: 0000 0000 0000 0000 0000 0000 0000 0000
00000330: 0000 0000 0000 0000 0000 0000 0000 0000
00000340: 0000 0000 0000 0000 0000 0000 0000 0000
00000350: 0000 0000 0000 0000 0000 0000 0000 0000
00000360: 0000 0000 0000 0000 0000 0000 0000 0000
00000370: 0000 0000 0000 0000 0000 0000 0000 0000
00000380: 0000 0000 ae23 ae3c ebdb a53c 0000 0000
00000390: 0000 0000 0000 0000 0000 0000 6b61 aabc
-0.02832978 0.001025299 0.0 0.0 0.0 0.023395985 0.027118206 0.026320908
0.022777991 0.0 0.0 -0.022987925 0.0 -0.026557658 0.02472795 0.020850444
0.0 0.02058997 0.0 0.0 0.0 0.0 0.0 0.0
0.0 0.0 0.0 0.0 0.0 0.0 0.0 0.0
0.0 0.0 0.0 0.0 0.0 0.0 0.0 0.0
0.0 0.0 0.0 0.0 0.0 0.0 0.0 0.0
0.0 0.0 0.0 0.017239595 0.0044654347 0.0 0.0 0.0
0.0 0.008761763 -0.0019655412 -0.03005998 0.0 0.0 0.0 0.02730219
-0.03234026 0.025452396 -0.028484408 0.0 0.0 -0.025719572 0.0 0.024937265
-0.02507084 0.023008004 0.0 -0.023453861 0.0 0.0 0.0 0.0
0.0 0.0 0.0 0.0 0.0 0.0 0.0 0.0
0.0 0.0 0.0 0.0 0.0 0.0 0.0 0.0
0.0 0.0 0.0 0.0 0.0 0.0 0.0 0.0
0.0 0.0 0.0 0.0 0.0 -0.021714216 0.010324921 0.0
0.0 0.0 0.0 -0.021968868 0.030945756 -0.018266074 0.0 0.0
0.0 0.027422758 0.026411701 0.028302914 0.027658565 0.0 0.0 0.025669456
0.0 0.027490322 0.016488843 0.0275878 0.0 -0.0073982645 0.0 0.0
0.0 0.0 0.0 0.0 0.0 0.0 0.0 0.0
0.0 0.0 0.0 0.0 0.0 0.0 0.0 0.0
0.0 0.0 0.0 0.0 0.0 0.0 0.0 0.0
0.0 0.0 0.0 0.0 0.0 0.0 0.0 0.020878267
0.020867797 0.0 0.0 0.0 0.0 0.022182174 -0.028234866 0.025428437
0.0 0.0 0.0 0.027501175 -0.026089342 -0.026718777 0.0293652 0.0
0.0 -0.01848433 0.0 -0.024863075 -0.018576501 0.028482178 0.0 -0.01148773
0.0 0.0 0.0 0.0 0.0 0.0 0.0 0.0
0.0 0.0 0.0 0.0 0.0 0.0 0.0 0.0
0.0 0.0 0.0 0.0 0.0 0.0 0.0 0.0
0.0 0.0 0.0 0.0 0.0 0.0 0.0 0.0
0.0 0.021257248 0.020246467 0.0 0.0 0.0 0.0 -0.020798406

base_model.model.embedding.lora_embedding_B f4 [128, 4]
00000000: 23f7 8e3d d4d7 063f a632 a63e 13df 1e3f
00000010: 82bf a8bd 44a5 c43e 729f d8bf bdfb d4bf
00000020: cf0a 33bf 13f5 09bf dea2 75bf a512 b63e
00000030: e8db e03f 4dce 50be 289b e23e f18b d83f
00000040: d510 583e 83ba 683d b3d2 97bf 7d66 2e3e
00000050: fbab 903e a173 8c3f a3ee ce3e 8a86 81bc
00000060: 32ff 323f 7290 e5bf 4562 763f 127f 5d3f
00000070: ec24 4f3e 93a8 483e 367a 543e 0934 52bf
00000080: eaef b0bf 8ab0 df3d 193d 613e a4ce 5ebd
00000090: 1a3b b1be 4e0b bb3e ddc3 4cc0 841e af3f
000000a0: 1caf 62bf c36b e3be 9021 37be f699 323f
000000b0: bc2d ddbe 3caa 88bf 0121 dc3f 31f7 653e
000000c0: 59a0 1240 b497 3f3f ba85 86bf ca67 cdbf
000000d0: 6a7b c03f 475f f5be da27 2fbc d4e3 013f
000000e0: 7b07 7abf df30 58bf 22ad d8bf 311c 693e
000000f0: 8896 26c0 b79d 32bf 38e9 e2be 70f7 743f
00000100: 41e8 453f 9726 ca3e b1c5 5e3e 7903 7dbf
00000110: b5ce 42bf f158 46bf fe54 62bf f3e7 8cbf
00000120: 525a c93f 9b4c e1bf 0931 4abf 0ad3 a2bf
00000130: 2df8 c5bd de55 b63f d506 54bd 1e5a 7f3f
00000140: 1856 d6bf 45d9 563f b11f c83f f72b 9b3f
00000150: 2b4e 1f3e 5eba bb3e ac2a 46bb 5e39 4c3f
00000160: e3ac 843f 4688 e43f 3378 bf3c 20ec a63e
00000170: 8592 463d 817a 8fbf 2788 dd3f 1b54 8dbf
00000180: 8e41 243f f87a 053d 8d52 8dbf e8e9 e23f
00000190: b566 453e 6277 da3f 22cf 923f b8c9 403e
000001a0: 7b58 563f 5662 62bf 659c 0c3f 1d93 b8bf
000001b0: 5987 1abf 33ff e3bf f897 ea3e f8b4 44bf
000001c0: 4c99 edbe a1a5 0740 2f61 8f3f 55c9 23bf
000001d0: 99bc dabd 12d2 9dbf 3462 e0be d281 433f
000001e0: 2bc9 3f3f aa68 603e 51aa 3bbf d80e 843f
000001f0: 73b6 673d 78b7 f8be c2bf 23be 1bab 00be
00000200: 4ad9 e4bf 6679 e0be 5425 503f ca4d 403f
00000210: 11d8 3c3e 6bab 33bf 88d8 a93f 187e cc3e
00000220: b09d 02bf dff8 6abd 3535 7e3d 2a15 cdbe
00000230: ec1d e73d 5923 44bf 95b9 c23f f3c1 8d3f
00000240: b518 093f 081d 133f 2479 bdbf 8b73 ecbe
00000250: f11d 33bf 6c28 74bf 42da 71bb 3daf 02bf
00000260: d1ef b13f aa33 4cbf 1b87 5b3e b00e 13bf
00000270: d8b1 f23f 32cc a8bf a826 0b3f 67bb 69be
00000280: c377 3abf 3841 32be 84be bc3f 4c9e 2940
00000290: c98c 02bf f526 24bf e9b4 8ebe d0a3 0cc0
000002a0: 75eb 173e 4a05 dabe fb65 873f 5e5d 463e
000002b0: 58ef 9c3f 5217 c3bc cbf1 0ec0 9acd 543f
000002c0: f665 dfbf da8b adbd ccd9 983f 4a2c cd3c
000002d0: a26e 963f 6505 a23f 03b1 39bf f8ea a23f
000002e0: a257 6ebd efad 4dbf ef30 003f 2628 173e
000002f0: 8076 5fbf 4f71 633f 96d0 a3be 6a43 e53f
00000300: c43f 623e 86f1 203e 079d ec3f a4a3 d93e
00000310: 6800 9e3e aa5f 75bf b241 753e 85dc 8dbf
00000320: 2a2b 0fbe e471 1c3d f4e0 373d 8efe 8cbf
00000330: 3205 883f 8164 7dbf aa5c efbe c599 36be
00000340: edb5 f1bd e86c 523f f51f 5c3f 7430 dc3e
00000350: 5e37 60bf b58d 1fbf c7a3 2e3f fb2f 813e
00000360: e6e3 24be f8a1 5f3f 8b27 673e 9eec 563f
00000370: d00d 273f 5837 df3d ed7b c9bd 1f7f bdbf
00000380: 0925 473f 2373 983f 87e6 473f 7ce3 a6bf
00000390: f4c6 9f3f 31f6 36bf b322 b33f 136d ecbf
000003a0: ece2 e23e 1e0e 643f e980 a43e 938b 74bf
000003b0: 6292 8c3d e9d8 89bf 1be5 003f f2f6 7bbf
000003c0: 37a3 5d3f da79 133f 4ed7 19c0 3256 293f
000003d0: bfa8 d0bf 20b1 82bf 212e 3dbd 6f86 84bd
000003e0: aff1 81bf 241c 92bf 6e2e 103f 32f6 21bf
000003f0: 8fd1 a33f 46f0 a73e 99d8 433f b699 bd3e
0.06980731 0.5267308 0.32460517 0.62059134 -0.08239652 0.38407338 -1.6923659 -1.6639324
-0.6993837 -0.5388958 -0.9595164 0.355611 1.756711 -0.20391198 0.44259 1.6917707
0.21100171 0.056818496 -1.1861175 0.17031284 0.2825621 1.0972787 0.4041644 -0.015811224
0.6992065 -1.7934706 0.962437 0.8652202 0.20228928 0.19595556 0.20749745 -0.8211065
-1.3823216 0.10922344 0.21995963 -0.054396287 -0.34615403 0.36532062 -3.1994545 1.3681188
-0.88548446 -0.44418153 -0.17883897 0.69766176 -0.43198955 -1.0676951 1.7197572 0.22457577
2.2910368 0.74840856 -1.050956 -1.6047299 1.5037663 -0.47924253 -0.010690654 0.50738263
-0.97667664 -0.8444957 -1.6927836 0.2276466 -2.6029377 -0.69771904 -0.44318557 0.9569006
0.77307516 0.39482567 0.21755101 -0.98833424 -0.7609666 -0.77479464 -0.8841094 -1.1008285
1.5730689 -1.7601503 -0.7898107 -1.2720654 -0.096664764 1.4244955 -0.051764328 0.9974688
-1.6745024 0.83925277 1.5634671 1.2122792 0.15557162 0.36665624 -0.0030237837 0.79775035
1.0365261 1.7854087 0.023372745 0.32602024 0.048479576 -1.120926 1.7307175 -1.1041292
0.6416253 0.032587975 -1.1040817 1.7727633 0.19277461 1.7067683 1.1469462 0.1882695
0.8372876 -0.884313 0.5492614 -1.4419895 -0.60362774 -1.7812256 0.45819068 -0.76838636
-0.4640602 2.1194842 1.1201533 -0.63979083 -0.106805034 -1.2329733 -0.43824923 0.76369965
0.7491633 0.21914926 -0.7330676 1.031703 0.05657048 -0.48577476 -0.15991119 -0.12565272
-1.7878811 -0.4384262 0.8130696 0.75118697 0.18441798 -0.7018344 1.3269205 0.39939952
-0.5102186 -0.05736625 0.06206246 -0.4005521 0.11285004 -0.76616436 1.5212885 1.1074814
0.53553325 0.57466173 -1.4802594 -0.46181902 -0.6996756 -0.9537418 -0.0036903773 -0.5104864
1.3901311 -0.79766333 0.21438257 -0.57444286 1.8960524 -1.3187315 0.5435586 -0.22825395
-0.7283899 -0.17407691 1.4745641 2.6502867 -0.5099607 -0.64121944 -0.27872398 -2.1974983
0.14835913 -0.4258216 1.0577997 0.19371554 1.2260542 -0.02381483 -2.2335079 0.83126223
-1.7452991 -0.0847394 1.1941466 0.025045533 1.1752512 1.2657896 -0.72535723 1.2727957
-0.058189042 -0.80343527 0.50074667 0.14761409 -0.8729019 0.8884477 -0.31995076 1.7911198
0.22094637 0.15717134 1.8485421 0.4250766 0.30859685 -0.95849097 0.23950842 -1.1082922
-0.1398131 0.038194552 0.044892266 -1.1015184 1.0626585 -0.9898148 -0.46750385 -0.17832096
-0.11802278 0.8219743 0.8598626 0.43005717 -0.87584484 -0.623256 0.68218654 0.2523192
-0.16102561 0.8735652 0.22573678 0.839548 0.6525545 0.10899228 -0.0983809 -1.4804419
0.77790886 1.1910137 0.7808613 -1.3038173 1.2482591 -0.7146941 1.3994964 -1.8470787
0.44313753 0.8908404 0.321296 -0.95525473 0.06863858 -1.0769321 0.5034959 -0.98423684
0.8657717 0.57607806 -2.4037662 0.6614715 -1.6301497 -1.0210304 -0.04618657 -0.06470954
-1.0151881 -1.1414838 0.56320846 -0.6326629 1.2798327 0.32800502 0.76502377 0.37031335

base_model.model.output.lora_A.weight f4 [4, 128]
00000000: b598 4e3d 70db 813c f84e fbbd d080 9b3d
00000010: 5629 f43d 115e 17bd de19 c6bd ce4e f4bb
00000020: b738 2a3d 6a94 243d 1338 00bd 41c5 1e3b
00000030: 717e b03d cde4 ed3d 9c60 9e3d 9e77 38bd
00000040: 703f 39bd fc54 2aba 939f 51bd e65f a73c
00000050: fd6e 9ebb 285d 3cbc a59d c7bc 8324 82bd
00000060: 651a f23c 2053 96bc a4cf 7a3d 4cd0 ae3d
00000070: aa4b 0c3d 2b77 3bbd 84c1 933c 529d 243c
00000080: 6546 d7bd a3a0 353d 90cc 343c 8521 343d
00000090: 20cc b93d 5f08 443d 5824 f23d 0f81 3d3d
000000a0: 6b38 9fbc 1c9d edbd 6778 f8bd d143 283d
000000b0: 0608 e2bd d2d3 ddbd efcf c2bd a4b0 bbbc
000000c0: 0e82 9dbd 428e f73d 253a c6bd 36c9 c13d
000000d0: 41fb ef3d ad96 343d 9507 b0bd bb0b b83d
000000e0: d136 b8bd c8ae 5dbd 5616 e73c 1e6f 3d3d
000000f0: f40b 253d 0cdf a73d d6fd 45bc 5797 cdbd
00000100: 580d 17bc 0cdf 403d bb56 9bbd 2507 e7bd
00000110: 3ca4 873c cca4 c8bc 5262 dbbd 9ef2 c9bd
00000120: d5cd 063d f5c6 d83d cbcb 58bd c94e 633c
00000130: 5c79 e9bc 2b87 063d a961 8d3c 0005 013d
00000140: d814 82bc fe8b 76bc 7c4b 693c c8c6 38bd
00000150: 2654 2abc dcec cdbc 0888 d2bc f657 8bbd
00000160: c18a b3bd 0508 423d e8f7 383d 623c 7bbd
00000170: 6a33 56bb 68b0 8f3d 815d 96bd 9113 0a3d
00000180: 1090 aa3d b4cc dfbd 94d4 4f3d 2bdc 913d
00000190: 5ebb 823d 6d63 bf3d fcbb 653b c17d d13d
000001a0: 977c 7dbc 0bb1 7cbd 4aaf 883d 3778 913d
000001b0: 2a51 83bc 597f 643d fe59 5ebd 2710 5a3d
000001c0: e4c5 c9bd f643 183d d71d 8ebc b14c 3bbd
000001d0: 23a8 ebbc 8376 89bd 6469 e8bd 4d85 283d
000001e0: 7a10 423d 298b b73d b84f 3d3d 84e2 09bd
000001f0: 8672 b83d bdea 6dbd a6ff 7ebd c02a b7bc
00000200: 00a2 4fbb 738b 30bd 5d6f d13d 4132 953c
00000210: d439 c13c 1874 793d 68d8 3b3d 8b5d cd3c
00000220: aefb 803c 7bfe c2bd c2e5 d8bd 381c 233b
00000230: 3a1a 443d de02 c53c 80ec 61bd 7f1f 93bb
00000240: 91b7 07bd e57f 163d c996 81bb fd03 3b3d
00000250: db64 24bd b830 73bb 9e8d 0cbd fc5a a1bc
00000260: 9602 df3d e601 6ebc 70dc 4c3d cfaf a2bc
00000270: da6d 143c cb12 15bc 8a5c fcbc 8b07 dfbc
00000280: ed1e 8d3d cccd e33d 5332 aebd e483 4fbd
00000290: 4fad 67bd bb8e 62bc 4290 083d 9aa7 483b
000002a0: 44a7 b83d a799 ac3d 5337 de3c 06ef 973a
000002b0: dfe0 9dbc 7ec5 d13d cc99 d93d f91c 36bd
000002c0: 2f14 e73c c8bf 353d 3c56 da3d 99c9 64bc
000002d0: 766b b5bd 4083 9ebc cb08 df3d e909 393d
000002e0: 404b 09bb f194 02bd c9b5 c73d 5cac 1bbd
000002f0: 29c2 02bd b793 d63c c150 a4bd 5448 34bc
00000300: c5e8 1abc 9f51 44bc be5e 243d 4895 bb3d
00000310: e814 f5bd 70fd 613d e05a a33d 536f b7bc
00000320: dc95 a4bd d2d7 ddbb 1f90 3c3d f6ab 33bd
00000330: 3afb 30b9 b5c0 d0bc 7ccc ab3d 7be9 babd
00000340: ce68 37bb f9af b9bd 32df 243d cf0a 5ebd
00000350: 1c34 33bd d052 f9bc f055 2dbb f635 673c
00000360: fb32 9f3c 5d3c 513d 5891 ba3d d92c 933d
00000370: 3d2c d33d 2da2 30bc 1430 8b3c 719f f2bb
00000380: ef52 79bc 87b2 32bd 9d97 1f3d e648 97bd
00000390: 7152 1c3d ffb1 cdbd 1e75 d2bc 7f6d dfbd
000003a0: 4bb9 dbbd 5f1c 303d 56e4 56bd 05ea 91bd
000003b0: 4a10 c2bc 85cd 89bc 6d4c 04bd fba5 e4bd
000003c0: 1721 c83d 3ed5 933d 160b 78ba c430 4e3d
000003d0: b49b 85bd 771d 593d 768d 623b 85a5 a7bb
000003e0: 40d2 5b3c bf37 92bc 3d9d 423d b40e 0f3d
000003f0: bdc9 85bd 6038 92bd 40b6 2dbb b9e7 573d
0.0504386 0.015851706 -0.122709215 0.075929284 0.11921947 -0.036954943 -0.096729025 -0.0074556833
0.041557994 0.0401806 -0.031303477 0.002422646 0.08617867 0.11615906 0.077332705 -0.04503595
-0.045226514 -0.0006497649 -0.051177572 0.02043147 -0.004835008 -0.01149682 -0.024367163 -0.0635462
0.029553602 -0.018350184 0.061233178 0.08535823 0.034251846 -0.045767944 0.018036611 0.010047274
-0.105114736 0.04434265 0.0110351 0.04397728 0.09072137 0.047859546 0.11823338 0.046265658
-0.019436082 -0.11602232 -0.1213234 0.0410803 -0.110366866 -0.10831417 -0.095123164 -0.022911377
-0.076908216 0.120876804 -0.09679059 0.09462206 0.11717845 0.044089008 -0.08595196 0.089866124
-0.089948304 -0.054121763 0.028208893 0.046248548 0.040294603 0.0819684 -0.012084445 -0.100386314
-0.00921949 0.047087714 -0.07584902 -0.112806596 0.016557805 -0.024492644 -0.107121125 -0.09860729
0.03291114 0.10584823 -0.052928727 0.013873764 -0.028500251 0.03284375 0.017258482 0.03149891
-0.01587908 -0.015048025 0.014239188 -0.045111448 -0.010396039 -0.025137357 -0.02569963 -0.068038866
-0.087666996 0.04737093 0.045158297 -0.061336882 -0.0032684454 0.07016069 -0.07342053 0.033710066
0.08328259 -0.10927716 0.05073984 0.07122072 0.06383394 0.09345136 0.0035054674 0.10229064
-0.015471599 -0.06169228 0.06674059 0.07103007 -0.016029913 0.05578551 -0.054285042 0.05323806
-0.09852198 0.037174188 -0.017348213 -0.045727435 -0.028766697 -0.067120574 -0.11348227 0.04114275
0.047378995 0.089620896 0.046218604 -0.033663288 0.090062186 -0.058085192 -0.062255524 -0.022359252
-0.0031682253 -0.04310174 0.10226319 0.01821244 0.023587145 0.06090173 0.045860678 0.025069019
0.01574501 -0.095211945 -0.10590698 0.0024888646 0.047876574 0.024049219 -0.055157185 -0.0044898386
-0.033134047 0.036743063 -0.0039547426 0.0456581 -0.040135246 -0.0037107896 -0.034314744 -0.019696705
0.10889165 -0.01452682 0.050014913 -0.019859223 0.009059394 -0.009098719 -0.030805845 -0.027225276
0.06890664 0.11123237 -0.08505692 -0.05066289 -0.056561764 -0.013827975 0.0333407 0.0030617476
0.090162784 0.08427744 0.02712599 0.001159162 -0.019272266 0.10242747 0.106250376 -0.044461224
0.028207866 0.04437235 0.10660979 -0.01396408 -0.08858387 -0.019349694 0.10890349 0.045175467
-0.0020949394 -0.031880323 0.0975147 -0.03800617 -0.031923447 0.026193483 -0.08023215 -0.0110035725
-0.009454911 -0.011982351 0.040129416 0.091593325 -0.11966878 0.055173337 0.079763174 -0.02239195
-0.08036396 -0.0067701126 0.046035882 -0.043865167 -0.00016878257 -0.025482515 0.08388612 -0.09126564
-0.0027986052 -0.09066767 0.040251918 -0.054209527 -0.043750867 -0.030434996 -0.0026448928 0.014111986
0.01943349 0.051082958 0.09109753 0.071862884 0.10311172 -0.010780853 0.016990699 -0.007404261
-0.015217527 -0.04362729 0.03896295 -0.07386951 0.03816456 -0.10043716 -0.025690611 -0.109095566
-0.10728701 0.042995807 -0.052463852 -0.07124714 -0.023689408 -0.016821632 -0.032299448 -0.11164471
0.097719364 0.07218407 -0.0009462101 0.050339475 -0.06523839 0.053006615 0.003456918 -0.005116167
0.013416827 -0.017848847 0.047513235 0.03492613 -0.06532619 -0.07139659 -0.0026506335 0.052711222

base_model.model.output.lora_B.weight f4 [58, 4]
00000000: e772 0ebd f2de 133d 668d 0cbd 862a 12bd
00000010: f9a4 03bd a3e8 093d df66 f8bc 1119 10bd
00000020: 43ea 093d df99 15bd 10a3 033d 1932 143d
00000030: 056e 093d 7cc1 17bd 8b76 063d a880 0f3d
00000040: b284 0a3d 2e21 15bd 922f 043d 9cc1 153d
00000050: 7525 2ebc 7185 c2bb a6de 863c 833e 193d
00000060: 5f3e 043d 1d93 07bd 6270 fd3c bb5b 023d
00000070: 0fbc 073d 003f 16bd 7980 043d 25e9 123d
00000080: e857 e83c 81b2 13bd 60bd 0e3d c025 b63b
00000090: 4a5f 093d 035d 16bd f46d 053d 4bb2 133d
000000a0: 5b49 0c3d 89a4 17bd a1e5 063d d7c8 153d
000000b0: 8ee3 e73c 60c2 0abd b65f 033d 8a57 503c
000000c0: 2162 0a3d e6ee 17bd c9e8 063d 9c65 133d
000000d0: 9d70 e43b d3df 0fbd 509a 2a3c e058 043c
000000e0: 694a 0b3c f228 b1bc dc07 dabc 7bf7 ff39
000000f0: 39b7 943b 0a9a d8bc f86b 57bc 3566 7abb
00000100: dc6f 093d 6e59 17bd ee11 063d 5480 113d
00000110: dfab 063d 3141 13bd 245c 033d 1b3b 123d
00000120: 1f09 0c3d b235 18bd 6a78 073d 4082 143d
00000130: 9c19 0a3d 2091 14bd dcad 043d 26fe 153d
00000140: 5ed7 0a3d 6255 16bd ea4b 063d 0a82 143d
00000150: fa63 0b3d db71 18bd 8986 063d 042e 143d
00000160: 150e 0a3d 0ae0 17bd bae6 053d 9bbe 113d
00000170: d44e 0a3d 9a00 17bd 66a1 063d 9a46 123d
00000180: 75e4 0b3d 3a95 19bd ebaf 093d 8d1c 123d
00000190: d775 093d aa6d 12bd 9ecf 033d 5f02 173d
000001a0: cb75 0b3d 922e 18bd a1a8 073d f86b 133d
000001b0: 494e 0b3d 8e64 18bd 74b4 073d 6562 133d
000001c0: 178e 0a3d 2e8a 17bd 7009 063d 1dbe 133d
000001d0: e3af 093d 0332 18bd 2b04 073d 2452 113d
000001e0: f2c9 0a3d 8775 12bd 76a4 033d a043 173d
000001f0: e8b6 0b3d 277d 16bd b0fc 053d 10ba 163d
00000200: 53fc 093d 8386 17bd 17e8 063d fab8 103d
00000210: c252 0b3d 0cf0 14bd 1281 063d 5002 183d
00000220: 5d28 0a3d 0941 15bd 09e6 043d d866 153d
00000230: 52bb 093d f05f 12bd a2a2 023d 001b 163d
00000240: bb22 083d 0b5a 17bd 9f21 063d 919e 0e3d
00000250: de2e 0a3d 8c6b 15bd 6ec9 043d e5a2 143d
00000260: 9d0a 0c3d b97b 19bd baaa 083d 2313 143d
00000270: e0b8 0b3d 2bd0 16bd 79ac 063d b0b3 153d
00000280: 1e38 0b3d 1b70 18bd 45c7 083d e92d 113d
00000290: 9a57 0a3d f837 16bd 0cb7 043d a3ca 143d
000002a0: b0d6 0a3d 1b1e 18bd b3f2 063d 62eb 123d
000002b0: 187d 093d 1d00 16bd 9461 053d ebd2 123d
000002c0: 5d57 093d 5c2f 16bd bf53 043d d430 143d
000002d0: 69e9 0a3d 4f91 18bd 5958 073d a2b8 113d
000002e0: 6d0b 0a3d da58 18bd 2010 073d ec70 103d
000002f0: bab1 0a3d 7f80 18bd 7504 083d 2856 113d
00000300: 82b7 0a3d 2994 17bd 96f3 063d 8c5d 123d
00000310: 4d6c 093d a015 18bd c6bd 063d bf76 103d
00000320: d424 0b3d 2120 14bd fbcf 043d 5bab 163d
00000330: 1f45 e13c 6464 57ba a981 083d 52f1 fa3c
00000340: edce cc3c cfd6 10bd d7e0 023d 2913 e63c
00000350: 2f0d 093d 63ba 17bd 737c 053d da57 123d
00000360: ee60 0b3d 1c1c 18bd 40fb 073d 68c6 133d
00000370: 88d2 0b3d 3705 19bd e81c 073d 27e2 133d
00000380: 77ff 0a3d 2f81 18bd 963d 053d 0497 123d
00000390: c372 ae3c d907 e4ba 9990 0b3d 2c90 113d
-0.03477755 0.03610129 -0.034314536 -0.035685085 -0.032139752 0.033669125 -0.03032249 -0.035180155
0.033670675 -0.036523696 0.03213793 0.03618059 0.03355219 -0.037049755 0.032827895 0.035034806
0.033817954 -0.036408596 0.03227193 0.036561593 -0.010629048 -0.0059363176 0.016463589 0.03741313
0.032286044 -0.033099283 0.030937377 0.031825762 0.03313833 -0.036681175 0.032349084 0.035866875
0.02836223 -0.036058906 0.03484857 0.0055586994 0.03353814 -0.036709797 0.032575563 0.036058705
0.034249645 -0.037022147 0.032933835 0.03656849 0.028306749 -0.033876777 0.0320737 0.012716183
0.03378499 -0.037093066 0.032936845 0.035985574 0.0069714324 -0.035125565 0.0104127675 0.00807783
0.0085016275 -0.02162597 -0.026615076 0.00048821777 0.0045384434 -0.026440639 -0.0131483 -0.0038207893
0.033553943 -0.03695052 0.032731943 0.035522774 0.032878753 -0.035950843 0.032070294 0.0357009
0.034188386 -0.037160583 0.03307382 0.03625703 0.03371583 -0.036271214 0.032392368 0.036619328
0.033896796 -0.03670252 0.03278724 0.036256827 0.034030892 -0.037217956 0.032843146 0.036176696
0.033704836 -0.037078895 0.03269074 0.035582166 0.033766583 -0.036865808 0.032868765 0.035711862
0.03415342 -0.03749583 0.033615034 0.03567176 0.033559646 -0.035749115 0.03218042 0.036867496
0.034047883 -0.037153788 0.0331198 0.03599164 0.034010205 -0.03720527 0.033131078 0.03598251
0.033826914 -0.036997013 0.032723844 0.036069978 0.033615004 -0.03715707 0.03296296 0.035478726
0.033883996 -0.035756614 0.032139264 0.036929727 0.03410998 -0.03674045 0.032711685 0.036798537
0.0336879 -0.036993515 0.032936182 0.035332657 0.03401447 -0.03636174 0.032837935 0.03711158
0.0337299 -0.036438975 0.03244594 0.036475033 0.03362591 -0.035736024 0.03189338 0.036646843
0.033236247 -0.036951106 0.032746907 0.03481919 0.033736102 -0.036479518 0.03241866 0.03628816
0.03418981 -0.037471507 0.033365943 0.036151063 0.034111857 -0.03681962 0.032879326 0.036548316
0.033989064 -0.037216287 0.033393163 0.035444174 0.03377495 -0.03667447 0.03240113 0.036326062
0.03389615 -0.037138086 0.0329463 0.03586901 0.033566564 -0.0366212 0.03256376 0.03584568
0.03353058 -0.03666626 0.03230643 0.03617938 0.033914004 -0.037247952 0.03304324 0.03557647
0.033702303 -0.03719411 0.032974362 0.03526394 0.0338609 -0.03723192 0.033207376 0.035482556
0.033866413 -0.03700653 0.032947145 0.035733745 0.03355055 -0.03713 0.032895826 0.035269495
0.03397067 -0.036163453 0.032424908 0.03678451 0.02749878 -0.00082165585 0.03332678 0.030632649
0.025001014 -0.035361107 0.031952705 0.028085308 0.03345984 -0.037042987 0.032589387 0.035728313
0.034027986 -0.037136182 0.033198595 0.036077887 0.034136325 -0.03735849 0.03298655 0.036104348
0.033935037 -0.037232574 0.032529436 0.03578855 0.021294957 -0.0017397358 0.034073446 0.035537884
