stream-dev-conda-py/ollam/LoRA_pyspark/models/fully_offline_lora/checkpoint-10/adapter_model.safetensors (safetensors, 6400 bytes, 4 tensors)

base_model.model.embedding.lora_embedding_A f4 [4, 58]
00000000: a6b5 0dbc dd53 b5b9 0000 0000 0000 0000
00000010: 0000 0000 bf4e 143c 9df2 153c aa8c 163c
00000020: 7402 0d3c 0000 0000 0000 0000 7ca8 00bc
00000030: 0000 0000 f90b 0cbc ad83 143c 465d 083c
00000040: 0000 0000 9864 ed3b 0000 0000 0000 0000
00000050: 0000 0000 0000 0000 0000 0000 0000 0000
00000060: 0000 0000 0000 0000 0000 0000 0000 0000
00000070: 0000 0000 0000 0000 0000 0000 0000 0000
00000080: 0000 0000 0000 0000 0000 0000 0000 0000
00000090: 0000 0000 0000 0000 0000 0000 0000 0000
000000a0: 0000 0000 0000 0000 0000 0000 0000 0000
000000b0: 0000 0000 0000 0000 0000 0000 0000 0000
000000c0: 0000 0000 0000 0000 0000 0000 babe ca3b
000000d0: 2ebd d8ba 0000 0000 0000 0000 0000 0000
000000e0: 0000 0000 0dfe b03a f468 d8bb 23ab 13bc
000000f0: 0000 0000 0000 0000 0000 0000 9edd 173c
00000100: ade0 14bc 23dc 153c 4fc9 16bc 0000 0000
00000110: 0000 0000 a5d1 09bc 0000 0000 7154 113c
00000120: c583 14bc c032 113c 0000 0000 c560 e9bb
00000130: 0000 0000 0000 0000 0000 0000 0000 0000
00000140: 0000 0000 0000 0000 0000 0000 0000 0000
00000150: 0000 0000 0000 0000 0000 0000 0000 0000
00000160: 0000 0000 0000 0000 0000 0000 0000 0000
00000170: 0000 0000 0000 0000 0000 0000 0000 0000
00000180: 0000 0000 0000 0000 0000 0000 0000 0000
00000190: 0000 0000 0000 0000 0000 0000 0000 0000
000001a0: 0000 0000 0000 0000 0000 0000 0000 0000
000001b0: 0000 0000 9f45 e0bb f88b af3b 0000 0000
000001c0: 0000 0000 0000 0000 0000 0000 983b e8bb
000001d0: 3055 163c 4c06 13bc 0000 0000 0000 0000
000001e0: 0000 0000 0479 163c 93c7 163c 966b 163c
000001f0: 41f2 143c 0000 0000 0000 0000 29c8 093c
00000200: 0000 0000 9374 143c e2f3 9aba 76fb 043c
00000210: 0000 0000 8dbe 76bb 0000 0000 0000 0000
00000220: 0000 0000 0000 0000 0000 0000 0000 0000
00000230: 0000 0000 0000 0000 0000 0000 0000 0000
00000240: 0000 0000 0000 0000 0000 0000 0000 0000
00000250: 0000 0000 0000 0000 0000 0000 0000 0000
00000260: 0000 0000 0000 0000 0000 0000 0000 0000
00000270: 0000 0000 0000 0000 0000 0000 0000 0000
00000280: 0000 0000 0000 0000 0000 0000 0000 0000
00000290: 0000 0000 0000 0000 0000 0000 a8fd da3b
000002a0: df31 e13b 0000 0000 0000 0000 0000 0000
000002b0: 0000 0000 66d4 ec3b ddaa 17bc fdb3 8b3b
000002c0: 0000 0000 0000 0000 0000 0000 bc52 143c
000002d0: 08e5 15bc 259a 16bc 2250 0b3c 0000 0000
000002e0: 0000 0000 19e0 01bc 0000 0000 8ca2 14bc
000002f0: 9d4f 13bc c886 163c 0000 0000 0515 69ba
00000300: 0000 0000 0000 0000 0000 0000 0000 0000
00000310: 0000 0000 0000 0000 0000 0000 0000 0000
00000320: 0000 0000 0000 0000 0000 0000 0000 0000
00000330: 0000 0000 0000 0000 0000 0000 0000 0000
00000340: 0000 0000 0000 0000 0000 0000 0000 0000
00000350: 0000 0000 0000 0000 0000 0000 0000 0000
00000360: 0000 0000 0000 0000 0000 0000 0000 0000
00000370: 0000 0000 0000 0000 0000 0000 0000 0000
00000380: 0000 0000 b7ae de3b 9ead e63b 0000 0000
00000390: 0000 0000 0000 0000 0000 0000 252a ecbb
-0.008649265 -0.00034585493 0.0 0.0 0.0 0.009051978 0.009152082 0.00918881
0.008606542 0.0 0.0 -0.00785267 0.0 -0.008547776 0.009064597 0.008323019
0.0 0.0072446577 0.0 0.0 0.0 0.0 0.0 0.0
0.0 0.0 0.0 0.0 0.0 0.0 0.0 0.0
0.0 0.0 0.0 0.0 0.0 0.0 0.0 0.0
0.0 0.0 0.0 0.0 0.0 0.0 0.0 0.0
0.0 0.0 0.0 0.006187287 -0.0016535872 0.0 0.0 0.0
0.0 0.0013503447 -0.0066043083 -0.00901297 0.0 0.0 0.0 0.009269146
-0.00908677 0.009146723 -0.009203269 0.0 0.0 -0.0084118 0.0 0.00887023
-0.009064619 0.008862197 0.0 -0.0071221315 0.0 0.0 0.0 0.0
0.0 0.0 0.0 0.0 0.0 0.0 0.0 0.0
0.0 0.0 0.0 0.0 0.0 0.0 0.0 0.0
0.0 0.0 0.0 0.0 0.0 0.0 0.0 0.0
0.0 0.0 0.0 0.0 0.0 -0.006844237 0.0053572617 0.0
0.0 0.0 0.0 -0.0070871823 0.009175584 -0.008973669 0.0 0.0
0.0 0.009184126 0.009202856 0.009180924 0.009090961 0.0 0.0 0.008409538
0.0 0.009060997 -0.001182195 0.008116594 0.0 -0.0037650198 0.0 0.0
0.0 0.0 0.0 0.0 0.0 0.0 0.0 0.0
0.0 0.0 0.0 0.0 0.0 0.0 0.0 0.0
0.0 0.0 0.0 0.0 0.0 0.0 0.0 0.0
0.0 0.0 0.0 0.0 0.0 0.0 0.0 0.00668307
0.0068724 0.0 0.0 0.0 0.0 0.0072274683 -0.009257046 0.0042633996
0.0 0.0 0.0 0.009052929 -0.009148844 -0.009192024 0.008502992 0.0
0.0 -0.007926964 0.0 -0.009071957 -0.008991149 0.009187408 0.0 -0.0008891377
0.0 0.0 0.0 0.0 0.0 0.0 0.0 0.0
0.0 0.0 0.0 0.0 0.0 0.0 0.0 0.0
0.0 0.0 0.0 0.0 0.0 0.0 0.0 0.0
0.0 0.0 0.0 0.0 0.0 0.0 0.0 0.0
0.0 0.00679573 0.0070397398 0.0 0.0 0.0 0.0 -0.0072071725

base_model.model.embedding.lora_embedding_B f4 [128, 4]
00000000: b2bf c73d 70ef 003f 798b 993e 0619 263f
00000010: 22c2 63bd 8eef b93e 600f dcbf 167e d1bf
00000020: 40d4 2bbf 3dcc 02bf 8fbb 7cbf c81e c33e
00000030: 0f5c dd3f 7ede 54be 7aa2 dc3e a243 d53f
00000040: c0b6 693e f251 8c3d a797 94bf b785 1a3e
00000050: 1f14 843e 54dd 8b3f a25f dd3e 8b4c 33bd
00000060: 0970 3a3f 024f e2bf 781a 6f3f 4a54 633f
00000070: 169d 623e 0361 643e 63ae 693e 159d 53bf
00000080: 9989 b4bf 9778 c43d fa5c 7e3e 7d40 aabd
00000090: 1525 a8be 52bd ba3e 1657 4ec0 5bba b13f
000000a0: 6019 5fbf 9a6e ddbe b94c 54be 72a8 393f
000000b0: f78d eabe 0dd7 85bf 5294 df3f 5391 493e
000000c0: 0ad7 1040 a54b 393f 11d8 82bf 6bee d0bf
000000d0: b5cf bc3f e435 ecbe a4e8 923c d19b f43e
000000e0: 787f 80bf 5cbf 50bf b9e9 d4bf f7f1 493e
000000f0: 7439 28c0 f291 37bf aa2f d5be 9554 6e3f
00000100: dacc 443f 7808 d83e 7cb2 753e f789 81bf
00000110: a65b 3bbf 5204 42bf 22dc 69bf b821 89bf
00000120: b4ea c53f 987b e3bf 39d4 4dbf e173 a5bf
00000130: e424 fabd 05f4 b23f 5eb1 c5bc bcbd 783f
00000140: 8606 d4bf dae4 4f3f f793 c43f d8fa 9e3f
00000150: 7dda 203e 5dc3 af3e 14e0 f3bc 3551 533f
00000160: ad33 813f d62d e13f 4759 4c3d 97ed 993e
00000170: 7feb c83c 3f92 8cbf 5133 e13f 2835 91bf
00000180: fa23 1d3f f48f 843c 0db0 89bf 8b45 df3f
00000190: e7d3 623e 06b9 d93f d427 8f3f 406d 5e3e
000001a0: 8fce 4e3f 3d07 5dbf e4e6 133f c251 bcbf
000001b0: 9f52 13bf 7560 e2bf b921 dc3e 5e5d 3dbf
000001c0: 6ee6 debe a311 0640 9cc6 8b3f 1b56 1cbf
000001d0: 6d33 d7bd 2a04 a1bf 3a7b edbe 5647 493f
000001e0: c715 463f e143 433e b8fc 42bf 05ef 873f
000001f0: e605 ad3d 8e7f ebbe 5687 40be 83d4 c8bd
00000200: fe7a e8bf 905d d5be 0c64 573f 87d9 383f
00000210: bab5 213e 4987 2cbf 0577 ad3f da4c bd3e
00000220: 2bbe f6be bb3c b4bd 2291 0c3d b7f8 bdbe
00000230: b7e6 ac3d 4691 48bf 966a c63f 8618 8a3f
00000240: 92af 013f a0dc 0b3f 48e3 b9bf e3c9 f8be
00000250: 5431 2cbf 774c 6dbf 6444 64bc bcc7 f8be
00000260: f54c ae3f e866 52bf 8aef 703e 9bb5 18bf
00000270: fb16 ef3f 76e6 a9bf 278d 123f e3bb 83be
00000280: 8146 33bf 2b76 22be 01fc b83f c273 2b40
00000290: c145 01bf 12ae 2abf 0bda 9bbe eef2 0ac0
000002a0: 4ba0 2d3e 75a8 cbbe cabc 893f f213 4b3e
000002b0: 9333 993f 7edd 833b 871f 0dc0 2934 4d3f
000002c0: 87d4 dbbf 21f3 75bd b076 953f 4fde 523d
000002d0: 965a 973f 40d5 a53f 4157 33bf 2ebb 9f3f
000002e0: 370d 9fbd 504c 46bf b093 063f c4c3 f53d
000002f0: b60e 58bf d5db 5b3f 7b52 b2be 6c0c e93f
00000300: d019 803e a248 103e 98fd e83f a989 e83e
00000310: f474 a03e 0cb6 6ebf c6a0 893e 3329 8dbf
00000320: 1644 2abe 80bc 4c3c dbcb 8b3d faf5 8fbf
00000330: 288f 843f 9f68 80bf b941 e1be 65a9 52be
00000340: 26d7 15be 68e0 4b3f bac6 5e3f f9a4 e13e
00000350: f746 5abf e37c 19bf 24d0 2d3f a9da 893e
00000360: 4b7f 42be 8383 5e3f 4383 823e 356d 4f3f
00000370: afcb 2d3f de11 073e e8e2 febd 4510 babf
00000380: 8ae5 423f 5a1e 963f 831c 423f 797f a9bf
00000390: 759e 9f3f f10b 3ebf 68a4 af3f 2f01 e9bf
000003a0: e83a d83e f9dc 643f da25 b23e fa94 7bbf
000003b0: 12d9 633d e167 8dbf 0fc3 f43e 0227 75bf
000003c0: 7898 563f 1c89 0c3f 1fc3 18c0 1219 253f
000003d0: 7f4c d4bf 6452 84bf 6a5e 8dbc 1ae5 bcbd
000003e0: fed7 83bf 5e9d 95bf cdeb 093f 1515 1bbf
000003f0: becc a63f b145 b53e e605 423f 99a4 c93e
0.0975336 0.5036535 0.29989222 0.6488193 -0.05560506 0.36315578 -1.7192192 -1.6366603
-0.6712074 -0.5109289 -0.9872369 0.38109422 1.7293719 -0.20787999 0.4309271 1.6661265
0.2282362 0.06851567 -1.1608781 0.1509007 0.257966 1.0926919 0.43237025 -0.04377417
0.728272 -1.7680361 0.93399763 0.8880049 0.22130236 0.22302632 0.2282043 -0.82661563
-1.4104491 0.09593313 0.24840155 -0.083130814 -0.3284079 0.36472565 -3.2240653 1.3884996
-0.87148094 -0.43248445 -0.20732392 0.7252265 -0.45811436 -1.0456253 1.7467139 0.19684343
2.263125 0.7238105 -1.0222188 -1.6322759 1.4750887 -0.46134865 0.017933197 0.47775128
-1.00389 -0.8154199 -1.6633826 0.19721209 -2.6285067 -0.7170707 -0.41637927 0.9309781
0.7687508 0.4219396 0.23993868 -1.0120229 -0.7318672 -0.7578784 -0.9135152 -1.0713415
1.5462251 -1.7772093 -0.8040195 -1.2925988 -0.122140676 1.3980719 -0.024132427 0.9716451
-1.6564491 0.81208575 1.5357655 1.2420301 0.15708347 0.34328738 -0.029769935 0.8254579
1.0093895 1.7592113 0.04988983 0.3006408 0.024526356 -1.0982131 1.7593786 -1.1344347
0.6138302 0.016181923 -1.0756851 1.7443098 0.22151147 1.700959 1.118403 0.21721363
0.80783933 -0.8633917 0.57774186 -1.471245 -0.57547945 -1.7685686 0.42994478 -0.7397059
-0.4353518 2.0948265 1.0919986 -0.61068887 -0.105078556 -1.2579396 -0.46383077 0.78624475
0.7737698 0.19068862 -0.7616687 1.0619818 0.08448391 -0.45995754 -0.18801627 -0.098061584
-1.8162534 -0.41672945 0.84137034 0.7220692 0.1579198 -0.6739393 1.3551947 0.36972696
-0.48191962 -0.08800646 0.034318097 -0.37103817 0.08442443 -0.7834667 1.5501277 1.0788734
0.50658524 0.5463352 -1.4522486 -0.48591527 -0.6726277 -0.926948 -0.013932321 -0.48589885
1.3617235 -0.8218827 0.23528877 -0.5965211 1.8678888 -1.3273456 0.5724663 -0.25729284
-0.70029455 -0.1586539 1.4451905 2.6789403 -0.5049706 -0.6667186 -0.3043979 -2.1710773
0.16955678 -0.3977696 1.0760739 0.19831827 1.1968864 0.0040242067 -2.2050493 0.80157715
-1.7174233 -0.06004632 1.1676846 0.05148154 1.182452 1.2955704 -0.70055014 1.2478998
-0.077661924 -0.77460194 0.52569103 0.1200023 -0.8439745 0.8588231 -0.34828553 1.8206916
0.25019693 0.14090207 1.8202391 0.45417526 0.31339228 -0.9324653 0.26880473 -1.1028198
-0.16627535 0.012496114 0.06825992 -1.1246941 1.0356188 -1.0031928 -0.43995455 -0.20572431
-0.14632854 0.7963929 0.8702198 0.44071177 -0.85264534 -0.59956187 0.6789572 0.26924637
-0.18993871 0.8691942 0.2549077 0.8102601 0.6788892 0.1319041 -0.12445623 -1.4536215
0.761315 1.1728013 0.75824755 -1.3242027 1.2470232 -0.7423697 1.3722048 -1.8203486
0.42232442 0.8939968 0.34794503 -0.98274195 0.055626936 -1.1047326 0.47805068 -0.95762646
0.838264 0.5489671 -2.3869092 0.6449138 -1.6585845 -1.0337644 -0.017256934 -0.09223385
-1.030029 -1.168865 0.5387543 -0.60579044 1.3031232 0.35404733 0.7579025 0.3938339

base_model.model.output.lora_A.weight f4 [4, 128]
00000000: c45d be3c 5cfc 2d3d a938 c3bd 8a9d 963d
00000010: e669 c23d 12c4 a5bc c791 92bd afdd 6ebc
00000020: 4265 893d ad46 343c c82c 6abd 0c38 e33c
00000030: ee27 6e3d e04b b53d f0ce 813d ce56 94bd
00000040: 1c0f 8abd cb80 debc a69a bfbc a97d b6b9
00000050: 99df 01bd b0a9 20bd a28d 55bd c4bc 4ebd
00000060: 4f99 5d3d 0a4b 3ebd 871b 0e3d 47d2 703d
00000070: d7ea f43b 7487 e3bc c6a4 18bc 5377 8abc
00000080: 6147 a5bd 9c1e 933d 42d4 87bc af98 853c
00000090: 78a0 803d 55b1 9a3d c601 ba3d f38b 963d
000000a0: 501c 003c b6e9 b4bd 4048 c0bd b449 523c
000000b0: 72d8 a8bd d8ba a5bd 9cc2 8ebd 9488 28bd
000000c0: 97f2 53bd 1a60 c03d 87a4 8dbd 076f 9b3d
000000d0: 9fdb b73d 4f1d 943d 0a55 70bd e463 7f3d
000000e0: c591 81bd 6d62 f3bc 278e 643d fa48 9a3c
000000f0: 7b65 7e3d cc75 603d 7436 21bd 2588 96bd
00000100: 0dba 5f3c cad0 943d 7f66 45bd a03e afbd
00000110: 44ae 78bb 30cc 843a 76eb a1bd 419b 92bd
00000120: f25b af3b 4e88 a33d e50f cebc 6ed1 5abc
00000130: 8568 5fbd 3cd2 0a3c 2e62 373d 2e49 933b
00000140: 9ccf 2fbd fa4f fabc cf5c 2b3d 6c30 95bd
00000150: 961d 1bbd 2e7c e53a 2a54 aebb 039e 23bd
00000160: c76b 76bd ba33 bb3c 1e93 903d bf9e 09bd
00000170: 562e c33c c6a5 2d3d 63e3 4bbd 2f1a 293c
00000180: a580 673d e48d a7bd d7c4 033d f2ad 5e3d
00000190: 3e39 1b3d f8ab 873d 9a6d bc3c b8f6 983d
000001a0: 4a64 2fbd cb1e 0dbd a91b 213d 7778 323d
000001b0: 69f8 063c 8844 f13c c1e7 10bd ef43 cb3c
000001c0: 1cf8 91bd 39ae db3c 1087 36bd eee2 97bc
000001d0: 0762 67bd 6374 29bd f5c5 bcbd ecae 8d3d
000001e0: 078a 993d c9e4 7f3d 9616 943d af4f d3bb
000001f0: 7374 833d 00ed a3bd 57b8 14bd 0f2e 963b
00000200: 99f0 c63c 6a41 90bd 7f43 983d 7a7e 813c
00000210: 61be 443d 7a7e 343d 865f 9d3c 11f7 063d
00000220: 5935 2ebc 7458 87bd a77b a3bd 9c50 bdbc
00000230: 4e9c 9c3d 9dd3 563d aef6 18bd 1d62 bf3c
00000240: 5866 3dbc b49b 833d 7c08 04bd aabb 713d
00000250: 9b7e 4ebc 6b0e c73c 5195 c5bb e9d4 04bd
00000260: 60e5 ab3d 8f03 683c 7322 9b3d c423 ca3b
00000270: e44a 153d d463 eebc f128 39bb 001f 3e39
00000280: 196c 3d3d fc47 aa3d 4c55 6abd 8480 bcbc
00000290: 5e5b e7bc 0043 2bbd 3674 7a3d 2c92 c9bc
000002a0: dc18 803d 4609 663d 7e54 76ba 704f f13c
000002b0: b5f0 43bd 39da 983d da4e a63d 07b9 f3bc
000002c0: e014 c83a 4ce0 923d 9cd0 a03d 2dda 9c3a
000002d0: a939 78bd 9ad6 43bd 4d00 a63d 5783 953d
000002e0: 7849 eebc 1f83 67bd 8274 8e3d 168c 23bc
000002f0: 565b 5dbd e72d 5c3d 7f32 57bd eaa6 1dbd
00000300: f3ed 03bd 8289 1bbd 137d 483c f3c0 823d
00000310: 074a bebd 424b f33c 0b1b 553d fc98 4cbd
00000320: 1b53 56bd e9cb a43c aa5b 8d3c b668 8bbc
00000330: 9ee1 d03c e92b 4aba 8d3f 653d b5bd 82bd
00000340: df9b cc3c 6652 acbd 5dd1 4a3c d2c8 d4bc
00000350: 2cbc 80bc 24e7 6bbd d289 c4bc b670 6cbc
00000360: df30 0dbc c418 9a3d 86d1 843d 0384 323d
00000370: 932c 9a3d 53b5 8e3c 8a1e c6bb a69d 853c
00000380: 247e 423c 52e6 92bd 9a0f 753d ba04 71bd
00000390: f0c7 833d a60a 95bd 5d88 24bd 9329 a6bd
000003a0: 2aff a2bd a4d0 763c 1287 c9bc a127 31bd
000003b0: 4e7b 46bd 8abd 243c 9e06 58bd 6557 aabd
000003c0: d253 8f3d a44f 8e3d 9591 db3c 152a b93c
000003d0: d0a2 18bd b9fe d63c 9a39 9abc 3362 09bd
000003e0: 811c 6fbc 7da9 203c b97b ac3c 4ab8 f93b
000003f0: ff39 21bd 7f9f 61bd d627 ecbc 9f95 d03c
0.02323807 0.042476997 -0.095322914 0.07354267 0.09492855 -0.020235095 -0.07156711 -0.014579221
0.067087665 0.011003179 -0.057171613 0.027736686 0.05814355 0.08852363 0.06338298 -0.07243119
-0.06741163 -0.027161023 -0.023389172 -0.0003480737 -0.03170738 -0.039224327 -0.052137025 -0.05047299
0.054101285 -0.04645828 0.03469422 0.058794286 0.007474284 -0.02777455 -0.009316629 -0.016902601
-0.08070255 0.07183573 -0.016580705 0.016308157 0.06280607 0.07553355 0.090823695 0.07350912
0.00781925 -0.08833639 -0.093887806 0.012834955 -0.08244409 -0.08092278 -0.069707125 -0.041145876
-0.051745024 0.0939333 -0.06916147 0.07589536 0.08977436 0.07232153 -0.05867485 0.062351122
-0.063266315 -0.029710019 0.05579963 0.018833626 0.062108498 0.05479984 -0.03935857 -0.07350186
0.013655198 0.07266386 -0.04819345 -0.08556867 -0.0037945667 0.0010131653 -0.07906239 -0.071585186
0.005351537 0.079849824 -0.025154063 -0.013355596 -0.054543037 0.008472975 0.044771366 0.0044948077
-0.0429226 -0.030555714 0.041836556 -0.07284626 -0.037870012 0.0017508322 -0.0053200917 -0.039945614
-0.06016138 0.022851814 0.070593104 -0.033598658 0.023825806 0.042394422 -0.0497774 0.010321184
0.05651917 -0.0818136 0.032170143 0.054365106 0.037896387 0.06624597 0.02300148 0.07468933
-0.042820252 -0.034453195 0.03933302 0.043571915 0.0082379365 0.029451624 -0.035377268 0.024812667
-0.07127401 0.026816474 -0.0445624 -0.018540826 -0.05648997 -0.04137076 -0.09217445 0.06918129
0.0749703 0.062474046 0.072308704 -0.006448708 0.06418695 -0.080041885 -0.036308613 0.0045831273
0.024284648 -0.07043727 0.07434749 0.015807379 0.048033122 0.04406593 0.019210588 0.032950465
-0.010632836 -0.06608668 -0.07982569 -0.023109727 0.07647 0.052447904 -0.037344627 0.023362214
-0.011560045 0.064261824 -0.032234654 0.05901686 -0.012603427 0.024298867 -0.006029763 -0.03242961
0.08393359 0.014161005 0.0757493 0.0061688144 0.036448374 -0.029100336 -0.0028253163 0.0001813136
0.046245668 0.08314511 -0.05721025 -0.0230105 -0.02824181 -0.041811943 0.061145984 -0.024605833
0.062547415 0.056161188 -0.00093967456 0.029456824 -0.047836978 0.07463498 0.081205085 -0.029751314
0.001526501 0.071716875 0.07852289 0.0011966877 -0.060601864 -0.047812082 0.08105526 0.07300442
-0.029087767 -0.05652153 0.06955816 -0.00998213 -0.054042183 0.053754713 -0.05253839 -0.03848926
-0.032209348 -0.037972935 0.012236851 0.063844584 -0.09291463 0.029698972 0.052027743 -0.049950585
-0.05232535 0.020116763 0.017255623 -0.017017704 0.025498208 -0.00077122316 0.05596881 -0.0638384
0.024976669 -0.08414154 0.012379018 -0.025974665 -0.015714727 -0.05759348 -0.0239915 -0.014431169
-0.008617609 0.07524255 0.06485276 0.043582927 0.07528033 0.017420447 -0.006046121 0.016310524
0.011870895 -0.07172836 0.059829332 -0.0588424 0.064346194 -0.07277422 -0.04016911 -0.081133984
-0.07958825 0.015064392 -0.02460054 -0.043250684 -0.048457436 0.010054955 -0.052740686 -0.083174504
0.06998409 0.06948784 0.026802817 0.022603074 -0.037264645 0.026244508 -0.018826295 -0.033540916
-0.014594198 0.009806034 0.02105509 0.007620846 -0.03936195 -0.055083748 -0.028827589 0.02546197

base_model.model.output.lora_B.weight f4 [58, 4]
00000000: 109f 16bc de55 f53b a6d1 16bc 426d 17bc
00000010: e5f6 19bc 3f4b 193c e962 17bc 5675 14bc
00000020: 8ee0 193c 9663 19bc cc98 183c 85ef 1a3c
00000030: efca 183c 18c7 14bc c4fd 183c 8c35 193c
00000040: bd03 1a3c 61db 19bc aca3 183c a214 1b3c
00000050: eed1 12bc e82a f83b 1704 d3bb dd5c 0c3c
00000060: 4c3f 163c f73c 18bc eda8 153c 3e8d d23b
00000070: 93a3 183c 4cfc 18bc 1a78 183c 6596 1a3c
00000080: 7839 833a 2a9e 16bc 9cdd 163c ad5e 07bc
00000090: 8d34 193c 8152 1abc 7ffd 183c 1c8a 193c
000000a0: 5504 1a3c 9dcd 19bc 5a44 193c ddab 1a3c
000000b0: 958e d33b 560a 18bc 8280 173c ce94 b6bb
000000c0: 2c52 193c 4ed5 19bc 9331 193c 2b97 193c
000000d0: 9dd2 c3bb 940d 19bc 7ed2 9dbb 3597 f0bb
000000e0: 1667 a13b c6e2 12bc 711c 11bc ee5f ea3b
000000f0: 9b79 04bc bf6a 63ba 4858 11bc 4d69 10bc
00000100: 9db7 183c 7467 1abc 20ba 183c f601 193c
00000110: 735e 123c 5bd3 16bc 670d 183c 0434 183c
00000120: 2c71 193c d2c3 0fbc 6934 193c 4dac 193c
00000130: 62a4 193c bb21 1abc 94d6 183c 1202 1b3c
00000140: 304f 193c 710f 1bbc dc18 193c 3518 1a3c
00000150: a6c0 193c 55b1 18bc 4233 193c a064 1a3c
00000160: 4d3d 193c f1e6 18bc 7ef3 183c 11c5 193c
00000170: c0ee 183c 52aa 1abc cf1b 193c 498e 193c
00000180: f4c3 183c b399 16bc ce12 193c ca0d 193c
00000190: 92bf 193c 84f7 19bc 3aa0 183c 603b 1a3c
000001a0: 1259 193c 1a21 1abc 873e 193c a6bb 193c
000001b0: 580c 193c bc54 1abc c11b 193c ee99 193c
000001c0: 52a6 193c 3884 1abc 3329 193c c03b 1a3c
000001d0: ebd5 183c 2d71 19bc ec00 193c 36e3 183c
000001e0: bc16 1a3c c2aa 19bc 3572 183c b758 1b3c
000001f0: 11eb 193c 3572 1abc 15f2 183c 6206 1b3c
00000200: 0ec7 183c 6c6b 10bc 53fc 183c 072f 193c
00000210: 8db4 193c 6ec9 1abc 950b 193c 73b1 1a3c
00000220: 3564 193c 1687 1abc e5c1 183c d89a 1a3c
00000230: 9fd3 193c 7efa 19bc ba52 183c 0c47 1b3c
00000240: 29d8 173c 2279 16bc 0862 183c 20bb 173c
00000250: 4fb7 193c 0ee9 19bc 18f9 183c 82a0 1a3c
00000260: c731 193c 9105 19bc ff2c 193c 7c94 193c
00000270: 08dd 193c 317c 1abc 571e 193c 1ac5 1a3c
00000280: f716 193c bc38 16bc 0d26 193c cb27 193c
00000290: cdde 193c 2df1 19bc b5f6 183c 3bdc 1a3c
000002a0: 4dad 193c 4644 16bc c759 193c 001a 1a3c
000002b0: 0e8b 193c 24af 19bc a815 193c 41e4 193c
000002c0: 8e6e 193c bf3b 1abc 66b7 183c a6a5 1a3c
000002d0: cd2b 193c 66ed 17bc fd19 193c b146 193c
000002e0: e37c 183c 5b2c 16bc c0bb 183c e9b0 183c
000002f0: 568e 183c 5a62 19bc c3e3 183c bdcb 183c
00000300: e455 193c 26fa 19bc ae4f 193c f1cd 193c
00000310: 80ba 183c 632c 18bc f1f0 183c 96e8 183c
00000320: 4c13 1a3c 2d5d 1abc c0d6 183c 8b44 1b3c
00000330: af24 a63b 13e2 973b eba9 153c 364b 0d3c
00000340: 9cb2 b33b e7c1 18bc ddb8 153c 5d91 c93b
00000350: 48ba 183c 6de4 1abc 9bcd 183c 0066 193c
00000360: a777 193c 839a 19bc 3b46 193c edb2 193c
00000370: 2c94 193c fb84 15bc 923a 193c c742 1a3c
00000380: 84c3 193c c372 19bc 6fde 183c 55a4 1a3c
00000390: dc6b a03b 0afa bb3b 0958 173c 0092 143c
-0.009193197 0.007487043 -0.0092052575 -0.009242358 -0.009397243 0.009356319 -0.009239891 -0.009061178
0.009391917 -0.009362122 0.009313773 0.00945652 0.009325727 -0.009080671 0.009337846 0.0093511455
0.009400305 -0.009390683 0.009316366 0.009465368 -0.008961184 0.007573474 -0.0064396965 0.008567062
0.009170365 -0.009291879 0.009134513 0.006425529 0.009316343 -0.009337496 0.009305978 0.009435271
0.0010011634 -0.009192983 0.009208109 -0.008262319 0.009350908 -0.0094190845 0.009337782 0.009371307
0.009400447 -0.009387401 0.009354675 0.009440389 0.006456206 -0.009279808 0.009246947 -0.005571938
0.00935797 -0.009389235 0.009350198 0.00937442 -0.005976035 -0.009341616 -0.0048163524 -0.007342244
0.004925619 -0.0089652 -0.008856879 0.007152549 -0.008085634 -0.0008675269 -0.008871146 -0.008814168
0.009321121 -0.009424079 0.009321719 0.009338846 0.008933651 -0.0092056645 0.009280539 0.009289745
0.009365361 -0.008774715 0.009350874 0.009379459 0.009377571 -0.009407456 0.009328503 0.009460943
0.009357259 -0.009464131 0.009344306 0.0094051855 0.00938431 -0.009319623 0.0093506 0.009423405
0.009352994 -0.0093324045 0.009335397 0.009385363 0.009334266 -0.009440022 0.009345009 0.009372302
0.009324063 -0.009191918 0.009342862 0.0093416665 0.009384053 -0.009397391 0.009315545 0.00941357
0.009359615 -0.009407306 0.009353287 0.009383118 0.009341322 -0.009419616 0.009344996 0.009375079
0.009378033 -0.0094309375 0.009348202 0.00941366 0.009328346 -0.009365362 0.009338599 0.009331515
0.009404834 -0.009379091 0.009304573 0.0094816005 0.009394423 -0.009426643 0.009335061 0.009461971
0.009324802 -0.008814674 0.0093375025 0.009349591 0.009381426 -0.009447439 0.00934114 0.009441721
0.00936227 -0.009431621 0.009323572 0.009436332 0.009388833 -0.009398101 0.009297067 0.009477388
0.009267845 -0.009184154 0.009300716 0.009260923 0.009382083 -0.0093939435 0.009336732 0.009437682
0.009350247 -0.009339706 0.009349107 0.00937378 0.009391077 -0.009429024 0.0093456125 0.009446407
0.009343854 -0.0091688 0.009347451 0.009347866 0.009391499 -0.00939588 0.009336163 0.009451921
0.009379697 -0.009171551 0.0093597835 0.009405613 0.009371532 -0.009380136 0.009343542 0.009392799
0.009364737 -0.009413659 0.009321069 0.009438908 0.009348822 -0.009272909 0.009344575 0.009355233
0.009307119 -0.009165849 0.009322107 0.009319522 0.009311279 -0.009361828 0.009331646 0.009325919
0.009358857 -0.009398019 0.009357376 0.009387479 0.009321809 -0.009287926 0.009334789 0.009332797
0.009404015 -0.009421629 0.009328544 0.009476791 0.005070291 0.0046351044 0.00913475 0.008623889
0.0054839384 -0.009323574 0.009138313 0.006151362 0.009321757 -0.009453875 0.009326364 0.009362698
0.009366906 -0.009375217 0.009355123 0.009381038 0.009373706 -0.009125943 0.009352343 0.009415335
0.009384993 -0.00936574 0.009330376 0.009438594 0.0048956703 0.005736594 0.009237298 0.009068012
